<?xml version="1.0"?>
<net name="torch_jit" version="11">
	<layers>
		<layer id="0" name="images" type="Parameter" version="opset1">
			<data shape="1,3,224,224" element_type="f32" />
			<output>
				<port id="0" precision="FP32" names="images">
					<dim>1</dim>
					<dim>3</dim>
					<dim>224</dim>
					<dim>224</dim>
				</port>
			</output>
		</layer>
		<layer id="1" name="Constant_13962" type="Const" version="opset1">
			<data element_type="f32" shape="1, 1, 1, 1" offset="0" size="4" />
			<output>
				<port id="0" precision="FP32">
					<dim>1</dim>
					<dim>1</dim>
					<dim>1</dim>
					<dim>1</dim>
				</port>
			</output>
		</layer>
		<layer id="2" name="Constant_13963" type="Const" version="opset1">
			<data element_type="f32" shape="1, 1, 1, 1" offset="4" size="4" />
			<output>
				<port id="0" precision="FP32">
					<dim>1</dim>
					<dim>1</dim>
					<dim>1</dim>
					<dim>1</dim>
				</port>
			</output>
		</layer>
		<layer id="3" name="Constant_13964" type="Const" version="opset1">
			<data element_type="f32" shape="1, 1, 1, 1" offset="0" size="4" />
			<output>
				<port id="0" precision="FP32">
					<dim>1</dim>
					<dim>1</dim>
					<dim>1</dim>
					<dim>1</dim>
				</port>
			</output>
		</layer>
		<layer id="4" name="Constant_13965" type="Const" version="opset1">
			<data element_type="f32" shape="1, 1, 1, 1" offset="4" size="4" />
			<output>
				<port id="0" precision="FP32">
					<dim>1</dim>
					<dim>1</dim>
					<dim>1</dim>
					<dim>1</dim>
				</port>
			</output>
		</layer>
		<layer id="5" name="images_DequantizeLinear" type="FakeQuantize" version="opset1">
			<data levels="256" auto_broadcast="numpy" />
			<input>
				<port id="0" precision="FP32">
					<dim>1</dim>
					<dim>3</dim>
					<dim>224</dim>
					<dim>224</dim>
				</port>
				<port id="1" precision="FP32">
					<dim>1</dim>
					<dim>1</dim>
					<dim>1</dim>
					<dim>1</dim>
				</port>
				<port id="2" precision="FP32">
					<dim>1</dim>
					<dim>1</dim>
					<dim>1</dim>
					<dim>1</dim>
				</port>
				<port id="3" precision="FP32">
					<dim>1</dim>
					<dim>1</dim>
					<dim>1</dim>
					<dim>1</dim>
				</port>
				<port id="4" precision="FP32">
					<dim>1</dim>
					<dim>1</dim>
					<dim>1</dim>
					<dim>1</dim>
				</port>
			</input>
			<output>
				<port id="5" precision="FP32" names="images_DequantizeLinear_Output">
					<dim>1</dim>
					<dim>3</dim>
					<dim>224</dim>
					<dim>224</dim>
				</port>
			</output>
		</layer>
		<layer id="6" name="onnx::Conv_650_quantized" type="Const" version="opset1">
			<data element_type="i8" shape="32, 3, 3, 3" offset="8" size="864" />
			<output>
				<port id="0" precision="I8" names="onnx::Conv_650_quantized">
					<dim>32</dim>
					<dim>3</dim>
					<dim>3</dim>
					<dim>3</dim>
				</port>
			</output>
		</layer>
		<layer id="7" name="Convert_1250" type="Convert" version="opset1">
			<data destination_type="f32" />
			<input>
				<port id="0" precision="I8">
					<dim>32</dim>
					<dim>3</dim>
					<dim>3</dim>
					<dim>3</dim>
				</port>
			</input>
			<output>
				<port id="1" precision="FP32">
					<dim>32</dim>
					<dim>3</dim>
					<dim>3</dim>
					<dim>3</dim>
				</port>
			</output>
		</layer>
		<layer id="8" name="Constant_13966" type="Const" version="opset1">
			<data element_type="f32" shape="1, 1, 1, 1" offset="872" size="4" />
			<output>
				<port id="0" precision="FP32">
					<dim>1</dim>
					<dim>1</dim>
					<dim>1</dim>
					<dim>1</dim>
				</port>
			</output>
		</layer>
		<layer id="9" name="onnx::Conv_650_DequantizeLinear" type="Multiply" version="opset1">
			<data auto_broadcast="numpy" />
			<input>
				<port id="0" precision="FP32">
					<dim>32</dim>
					<dim>3</dim>
					<dim>3</dim>
					<dim>3</dim>
				</port>
				<port id="1" precision="FP32">
					<dim>1</dim>
					<dim>1</dim>
					<dim>1</dim>
					<dim>1</dim>
				</port>
			</input>
			<output>
				<port id="2" precision="FP32" names="onnx::Conv_650_DequantizeLinear_Output">
					<dim>32</dim>
					<dim>3</dim>
					<dim>3</dim>
					<dim>3</dim>
				</port>
			</output>
		</layer>
		<layer id="10" name="/features/features.0/features.0.0/Conv/WithoutBiases" type="Convolution" version="opset1">
			<data strides="2, 2" dilations="1, 1" pads_begin="1, 1" pads_end="1, 1" auto_pad="explicit" />
			<input>
				<port id="0" precision="FP32">
					<dim>1</dim>
					<dim>3</dim>
					<dim>224</dim>
					<dim>224</dim>
				</port>
				<port id="1" precision="FP32">
					<dim>32</dim>
					<dim>3</dim>
					<dim>3</dim>
					<dim>3</dim>
				</port>
			</input>
			<output>
				<port id="2" precision="FP32">
					<dim>1</dim>
					<dim>32</dim>
					<dim>112</dim>
					<dim>112</dim>
				</port>
			</output>
		</layer>
		<layer id="11" name="Reshape_1656" type="Const" version="opset1">
			<data element_type="f32" shape="1, 32, 1, 1" offset="876" size="128" />
			<output>
				<port id="0" precision="FP32">
					<dim>1</dim>
					<dim>32</dim>
					<dim>1</dim>
					<dim>1</dim>
				</port>
			</output>
		</layer>
		<layer id="12" name="/features/features.0/features.0.0/Conv" type="Add" version="opset1">
			<data auto_broadcast="numpy" />
			<input>
				<port id="0" precision="FP32">
					<dim>1</dim>
					<dim>32</dim>
					<dim>112</dim>
					<dim>112</dim>
				</port>
				<port id="1" precision="FP32">
					<dim>1</dim>
					<dim>32</dim>
					<dim>1</dim>
					<dim>1</dim>
				</port>
			</input>
			<output>
				<port id="2" precision="FP32" names="/features/features.0/features.0.0/Conv_output_0">
					<dim>1</dim>
					<dim>32</dim>
					<dim>112</dim>
					<dim>112</dim>
				</port>
			</output>
		</layer>
		<layer id="13" name="Constant_13967" type="Const" version="opset1">
			<data element_type="f32" shape="1, 1, 1, 1" offset="1004" size="4" />
			<output>
				<port id="0" precision="FP32">
					<dim>1</dim>
					<dim>1</dim>
					<dim>1</dim>
					<dim>1</dim>
				</port>
			</output>
		</layer>
		<layer id="14" name="Constant_13968" type="Const" version="opset1">
			<data element_type="f32" shape="1, 1, 1, 1" offset="1008" size="4" />
			<output>
				<port id="0" precision="FP32">
					<dim>1</dim>
					<dim>1</dim>
					<dim>1</dim>
					<dim>1</dim>
				</port>
			</output>
		</layer>
		<layer id="15" name="Constant_13969" type="Const" version="opset1">
			<data element_type="f32" shape="1, 1, 1, 1" offset="1004" size="4" />
			<output>
				<port id="0" precision="FP32">
					<dim>1</dim>
					<dim>1</dim>
					<dim>1</dim>
					<dim>1</dim>
				</port>
			</output>
		</layer>
		<layer id="16" name="Constant_13970" type="Const" version="opset1">
			<data element_type="f32" shape="1, 1, 1, 1" offset="1008" size="4" />
			<output>
				<port id="0" precision="FP32">
					<dim>1</dim>
					<dim>1</dim>
					<dim>1</dim>
					<dim>1</dim>
				</port>
			</output>
		</layer>
		<layer id="17" name="/features/features.0/features.0.0/Conv_output_0_DequantizeLinear" type="FakeQuantize" version="opset1">
			<data levels="256" auto_broadcast="numpy" />
			<input>
				<port id="0" precision="FP32">
					<dim>1</dim>
					<dim>32</dim>
					<dim>112</dim>
					<dim>112</dim>
				</port>
				<port id="1" precision="FP32">
					<dim>1</dim>
					<dim>1</dim>
					<dim>1</dim>
					<dim>1</dim>
				</port>
				<port id="2" precision="FP32">
					<dim>1</dim>
					<dim>1</dim>
					<dim>1</dim>
					<dim>1</dim>
				</port>
				<port id="3" precision="FP32">
					<dim>1</dim>
					<dim>1</dim>
					<dim>1</dim>
					<dim>1</dim>
				</port>
				<port id="4" precision="FP32">
					<dim>1</dim>
					<dim>1</dim>
					<dim>1</dim>
					<dim>1</dim>
				</port>
			</input>
			<output>
				<port id="5" precision="FP32" names="/features/features.0/features.0.0/Conv_output_0_DequantizeLinear_Output">
					<dim>1</dim>
					<dim>32</dim>
					<dim>112</dim>
					<dim>112</dim>
				</port>
			</output>
		</layer>
		<layer id="18" name="/features/features.0/features.0.2/Sigmoid" type="Sigmoid" version="opset1">
			<input>
				<port id="0" precision="FP32">
					<dim>1</dim>
					<dim>32</dim>
					<dim>112</dim>
					<dim>112</dim>
				</port>
			</input>
			<output>
				<port id="1" precision="FP32" names="/features/features.0/features.0.2/Sigmoid_output_0">
					<dim>1</dim>
					<dim>32</dim>
					<dim>112</dim>
					<dim>112</dim>
				</port>
			</output>
		</layer>
		<layer id="19" name="Constant_13971" type="Const" version="opset1">
			<data element_type="f32" shape="1, 1, 1, 1" offset="1012" size="4" />
			<output>
				<port id="0" precision="FP32">
					<dim>1</dim>
					<dim>1</dim>
					<dim>1</dim>
					<dim>1</dim>
				</port>
			</output>
		</layer>
		<layer id="20" name="Constant_13972" type="Const" version="opset1">
			<data element_type="f32" shape="1, 1, 1, 1" offset="1016" size="4" />
			<output>
				<port id="0" precision="FP32">
					<dim>1</dim>
					<dim>1</dim>
					<dim>1</dim>
					<dim>1</dim>
				</port>
			</output>
		</layer>
		<layer id="21" name="Constant_13973" type="Const" version="opset1">
			<data element_type="f32" shape="1, 1, 1, 1" offset="1012" size="4" />
			<output>
				<port id="0" precision="FP32">
					<dim>1</dim>
					<dim>1</dim>
					<dim>1</dim>
					<dim>1</dim>
				</port>
			</output>
		</layer>
		<layer id="22" name="Constant_13974" type="Const" version="opset1">
			<data element_type="f32" shape="1, 1, 1, 1" offset="1016" size="4" />
			<output>
				<port id="0" precision="FP32">
					<dim>1</dim>
					<dim>1</dim>
					<dim>1</dim>
					<dim>1</dim>
				</port>
			</output>
		</layer>
		<layer id="23" name="/features/features.0/features.0.2/Sigmoid_output_0_DequantizeLinear" type="FakeQuantize" version="opset1">
			<data levels="256" auto_broadcast="numpy" />
			<input>
				<port id="0" precision="FP32">
					<dim>1</dim>
					<dim>32</dim>
					<dim>112</dim>
					<dim>112</dim>
				</port>
				<port id="1" precision="FP32">
					<dim>1</dim>
					<dim>1</dim>
					<dim>1</dim>
					<dim>1</dim>
				</port>
				<port id="2" precision="FP32">
					<dim>1</dim>
					<dim>1</dim>
					<dim>1</dim>
					<dim>1</dim>
				</port>
				<port id="3" precision="FP32">
					<dim>1</dim>
					<dim>1</dim>
					<dim>1</dim>
					<dim>1</dim>
				</port>
				<port id="4" precision="FP32">
					<dim>1</dim>
					<dim>1</dim>
					<dim>1</dim>
					<dim>1</dim>
				</port>
			</input>
			<output>
				<port id="5" precision="FP32" names="/features/features.0/features.0.2/Sigmoid_output_0_DequantizeLinear_Output">
					<dim>1</dim>
					<dim>32</dim>
					<dim>112</dim>
					<dim>112</dim>
				</port>
			</output>
		</layer>
		<layer id="24" name="/features/features.0/features.0.2/Mul" type="Multiply" version="opset1">
			<data auto_broadcast="numpy" />
			<input>
				<port id="0" precision="FP32">
					<dim>1</dim>
					<dim>32</dim>
					<dim>112</dim>
					<dim>112</dim>
				</port>
				<port id="1" precision="FP32">
					<dim>1</dim>
					<dim>32</dim>
					<dim>112</dim>
					<dim>112</dim>
				</port>
			</input>
			<output>
				<port id="2" precision="FP32" names="/features/features.0/features.0.2/Mul_output_0">
					<dim>1</dim>
					<dim>32</dim>
					<dim>112</dim>
					<dim>112</dim>
				</port>
			</output>
		</layer>
		<layer id="25" name="Constant_13975" type="Const" version="opset1">
			<data element_type="f32" shape="1, 1, 1, 1" offset="1020" size="4" />
			<output>
				<port id="0" precision="FP32">
					<dim>1</dim>
					<dim>1</dim>
					<dim>1</dim>
					<dim>1</dim>
				</port>
			</output>
		</layer>
		<layer id="26" name="Constant_13976" type="Const" version="opset1">
			<data element_type="f32" shape="1, 1, 1, 1" offset="1024" size="4" />
			<output>
				<port id="0" precision="FP32">
					<dim>1</dim>
					<dim>1</dim>
					<dim>1</dim>
					<dim>1</dim>
				</port>
			</output>
		</layer>
		<layer id="27" name="Constant_13977" type="Const" version="opset1">
			<data element_type="f32" shape="1, 1, 1, 1" offset="1020" size="4" />
			<output>
				<port id="0" precision="FP32">
					<dim>1</dim>
					<dim>1</dim>
					<dim>1</dim>
					<dim>1</dim>
				</port>
			</output>
		</layer>
		<layer id="28" name="Constant_13978" type="Const" version="opset1">
			<data element_type="f32" shape="1, 1, 1, 1" offset="1024" size="4" />
			<output>
				<port id="0" precision="FP32">
					<dim>1</dim>
					<dim>1</dim>
					<dim>1</dim>
					<dim>1</dim>
				</port>
			</output>
		</layer>
		<layer id="29" name="/features/features.0/features.0.2/Mul_output_0_DequantizeLinear" type="FakeQuantize" version="opset1">
			<data levels="256" auto_broadcast="numpy" />
			<input>
				<port id="0" precision="FP32">
					<dim>1</dim>
					<dim>32</dim>
					<dim>112</dim>
					<dim>112</dim>
				</port>
				<port id="1" precision="FP32">
					<dim>1</dim>
					<dim>1</dim>
					<dim>1</dim>
					<dim>1</dim>
				</port>
				<port id="2" precision="FP32">
					<dim>1</dim>
					<dim>1</dim>
					<dim>1</dim>
					<dim>1</dim>
				</port>
				<port id="3" precision="FP32">
					<dim>1</dim>
					<dim>1</dim>
					<dim>1</dim>
					<dim>1</dim>
				</port>
				<port id="4" precision="FP32">
					<dim>1</dim>
					<dim>1</dim>
					<dim>1</dim>
					<dim>1</dim>
				</port>
			</input>
			<output>
				<port id="5" precision="FP32" names="/features/features.0/features.0.2/Mul_output_0_DequantizeLinear_Output">
					<dim>1</dim>
					<dim>32</dim>
					<dim>112</dim>
					<dim>112</dim>
				</port>
			</output>
		</layer>
		<layer id="30" name="onnx::Conv_653_quantized" type="Const" version="opset1">
			<data element_type="i8" shape="32, 1, 3, 3" offset="1028" size="288" />
			<output>
				<port id="0" precision="I8" names="onnx::Conv_653_quantized">
					<dim>32</dim>
					<dim>1</dim>
					<dim>3</dim>
					<dim>3</dim>
				</port>
			</output>
		</layer>
		<layer id="31" name="Convert_1258" type="Convert" version="opset1">
			<data destination_type="f32" />
			<input>
				<port id="0" precision="I8">
					<dim>32</dim>
					<dim>1</dim>
					<dim>3</dim>
					<dim>3</dim>
				</port>
			</input>
			<output>
				<port id="1" precision="FP32">
					<dim>32</dim>
					<dim>1</dim>
					<dim>3</dim>
					<dim>3</dim>
				</port>
			</output>
		</layer>
		<layer id="32" name="Constant_13979" type="Const" version="opset1">
			<data element_type="f32" shape="1, 1, 1, 1" offset="1316" size="4" />
			<output>
				<port id="0" precision="FP32">
					<dim>1</dim>
					<dim>1</dim>
					<dim>1</dim>
					<dim>1</dim>
				</port>
			</output>
		</layer>
		<layer id="33" name="onnx::Conv_653_DequantizeLinear" type="Multiply" version="opset1">
			<data auto_broadcast="numpy" />
			<input>
				<port id="0" precision="FP32">
					<dim>32</dim>
					<dim>1</dim>
					<dim>3</dim>
					<dim>3</dim>
				</port>
				<port id="1" precision="FP32">
					<dim>1</dim>
					<dim>1</dim>
					<dim>1</dim>
					<dim>1</dim>
				</port>
			</input>
			<output>
				<port id="2" precision="FP32" names="onnx::Conv_653_DequantizeLinear_Output">
					<dim>32</dim>
					<dim>1</dim>
					<dim>3</dim>
					<dim>3</dim>
				</port>
			</output>
		</layer>
		<layer id="34" name="Constant_15678" type="Const" version="opset1">
			<data element_type="i64" shape="5" offset="1320" size="40" />
			<output>
				<port id="0" precision="I64">
					<dim>5</dim>
				</port>
			</output>
		</layer>
		<layer id="35" name="Reshape_1712" type="Reshape" version="opset1">
			<data special_zero="true" />
			<input>
				<port id="0" precision="FP32">
					<dim>32</dim>
					<dim>1</dim>
					<dim>3</dim>
					<dim>3</dim>
				</port>
				<port id="1" precision="I64">
					<dim>5</dim>
				</port>
			</input>
			<output>
				<port id="2" precision="FP32">
					<dim>32</dim>
					<dim>1</dim>
					<dim>1</dim>
					<dim>3</dim>
					<dim>3</dim>
				</port>
			</output>
		</layer>
		<layer id="36" name="/features/features.1/features.1.0/block/block.0/block.0.0/Conv/WithoutBiases" type="GroupConvolution" version="opset1">
			<data strides="1, 1" pads_begin="1, 1" pads_end="1, 1" dilations="1, 1" auto_pad="explicit" />
			<input>
				<port id="0" precision="FP32">
					<dim>1</dim>
					<dim>32</dim>
					<dim>112</dim>
					<dim>112</dim>
				</port>
				<port id="1" precision="FP32">
					<dim>32</dim>
					<dim>1</dim>
					<dim>1</dim>
					<dim>3</dim>
					<dim>3</dim>
				</port>
			</input>
			<output>
				<port id="2" precision="FP32">
					<dim>1</dim>
					<dim>32</dim>
					<dim>112</dim>
					<dim>112</dim>
				</port>
			</output>
		</layer>
		<layer id="37" name="Reshape_1762" type="Const" version="opset1">
			<data element_type="f32" shape="1, 32, 1, 1" offset="1360" size="128" />
			<output>
				<port id="0" precision="FP32">
					<dim>1</dim>
					<dim>32</dim>
					<dim>1</dim>
					<dim>1</dim>
				</port>
			</output>
		</layer>
		<layer id="38" name="/features/features.1/features.1.0/block/block.0/block.0.0/Conv" type="Add" version="opset1">
			<data auto_broadcast="numpy" />
			<input>
				<port id="0" precision="FP32">
					<dim>1</dim>
					<dim>32</dim>
					<dim>112</dim>
					<dim>112</dim>
				</port>
				<port id="1" precision="FP32">
					<dim>1</dim>
					<dim>32</dim>
					<dim>1</dim>
					<dim>1</dim>
				</port>
			</input>
			<output>
				<port id="2" precision="FP32" names="/features/features.1/features.1.0/block/block.0/block.0.0/Conv_output_0">
					<dim>1</dim>
					<dim>32</dim>
					<dim>112</dim>
					<dim>112</dim>
				</port>
			</output>
		</layer>
		<layer id="39" name="Constant_13980" type="Const" version="opset1">
			<data element_type="f32" shape="1, 1, 1, 1" offset="1488" size="4" />
			<output>
				<port id="0" precision="FP32">
					<dim>1</dim>
					<dim>1</dim>
					<dim>1</dim>
					<dim>1</dim>
				</port>
			</output>
		</layer>
		<layer id="40" name="Constant_13981" type="Const" version="opset1">
			<data element_type="f32" shape="1, 1, 1, 1" offset="1492" size="4" />
			<output>
				<port id="0" precision="FP32">
					<dim>1</dim>
					<dim>1</dim>
					<dim>1</dim>
					<dim>1</dim>
				</port>
			</output>
		</layer>
		<layer id="41" name="Constant_13982" type="Const" version="opset1">
			<data element_type="f32" shape="1, 1, 1, 1" offset="1488" size="4" />
			<output>
				<port id="0" precision="FP32">
					<dim>1</dim>
					<dim>1</dim>
					<dim>1</dim>
					<dim>1</dim>
				</port>
			</output>
		</layer>
		<layer id="42" name="Constant_13983" type="Const" version="opset1">
			<data element_type="f32" shape="1, 1, 1, 1" offset="1492" size="4" />
			<output>
				<port id="0" precision="FP32">
					<dim>1</dim>
					<dim>1</dim>
					<dim>1</dim>
					<dim>1</dim>
				</port>
			</output>
		</layer>
		<layer id="43" name="/features/features.1/features.1.0/block/block.0/block.0.0/Conv_output_0_DequantizeLinear" type="FakeQuantize" version="opset1">
			<data levels="256" auto_broadcast="numpy" />
			<input>
				<port id="0" precision="FP32">
					<dim>1</dim>
					<dim>32</dim>
					<dim>112</dim>
					<dim>112</dim>
				</port>
				<port id="1" precision="FP32">
					<dim>1</dim>
					<dim>1</dim>
					<dim>1</dim>
					<dim>1</dim>
				</port>
				<port id="2" precision="FP32">
					<dim>1</dim>
					<dim>1</dim>
					<dim>1</dim>
					<dim>1</dim>
				</port>
				<port id="3" precision="FP32">
					<dim>1</dim>
					<dim>1</dim>
					<dim>1</dim>
					<dim>1</dim>
				</port>
				<port id="4" precision="FP32">
					<dim>1</dim>
					<dim>1</dim>
					<dim>1</dim>
					<dim>1</dim>
				</port>
			</input>
			<output>
				<port id="5" precision="FP32" names="/features/features.1/features.1.0/block/block.0/block.0.0/Conv_output_0_DequantizeLinear_Output">
					<dim>1</dim>
					<dim>32</dim>
					<dim>112</dim>
					<dim>112</dim>
				</port>
			</output>
		</layer>
		<layer id="44" name="/features/features.1/features.1.0/block/block.0/block.0.2/Sigmoid" type="Sigmoid" version="opset1">
			<input>
				<port id="0" precision="FP32">
					<dim>1</dim>
					<dim>32</dim>
					<dim>112</dim>
					<dim>112</dim>
				</port>
			</input>
			<output>
				<port id="1" precision="FP32" names="/features/features.1/features.1.0/block/block.0/block.0.2/Sigmoid_output_0">
					<dim>1</dim>
					<dim>32</dim>
					<dim>112</dim>
					<dim>112</dim>
				</port>
			</output>
		</layer>
		<layer id="45" name="Constant_13984" type="Const" version="opset1">
			<data element_type="f32" shape="1, 1, 1, 1" offset="1012" size="4" />
			<output>
				<port id="0" precision="FP32">
					<dim>1</dim>
					<dim>1</dim>
					<dim>1</dim>
					<dim>1</dim>
				</port>
			</output>
		</layer>
		<layer id="46" name="Constant_13985" type="Const" version="opset1">
			<data element_type="f32" shape="1, 1, 1, 1" offset="1016" size="4" />
			<output>
				<port id="0" precision="FP32">
					<dim>1</dim>
					<dim>1</dim>
					<dim>1</dim>
					<dim>1</dim>
				</port>
			</output>
		</layer>
		<layer id="47" name="Constant_13986" type="Const" version="opset1">
			<data element_type="f32" shape="1, 1, 1, 1" offset="1012" size="4" />
			<output>
				<port id="0" precision="FP32">
					<dim>1</dim>
					<dim>1</dim>
					<dim>1</dim>
					<dim>1</dim>
				</port>
			</output>
		</layer>
		<layer id="48" name="Constant_13987" type="Const" version="opset1">
			<data element_type="f32" shape="1, 1, 1, 1" offset="1016" size="4" />
			<output>
				<port id="0" precision="FP32">
					<dim>1</dim>
					<dim>1</dim>
					<dim>1</dim>
					<dim>1</dim>
				</port>
			</output>
		</layer>
		<layer id="49" name="/features/features.1/features.1.0/block/block.0/block.0.2/Sigmoid_output_0_DequantizeLinear" type="FakeQuantize" version="opset1">
			<data levels="256" auto_broadcast="numpy" />
			<input>
				<port id="0" precision="FP32">
					<dim>1</dim>
					<dim>32</dim>
					<dim>112</dim>
					<dim>112</dim>
				</port>
				<port id="1" precision="FP32">
					<dim>1</dim>
					<dim>1</dim>
					<dim>1</dim>
					<dim>1</dim>
				</port>
				<port id="2" precision="FP32">
					<dim>1</dim>
					<dim>1</dim>
					<dim>1</dim>
					<dim>1</dim>
				</port>
				<port id="3" precision="FP32">
					<dim>1</dim>
					<dim>1</dim>
					<dim>1</dim>
					<dim>1</dim>
				</port>
				<port id="4" precision="FP32">
					<dim>1</dim>
					<dim>1</dim>
					<dim>1</dim>
					<dim>1</dim>
				</port>
			</input>
			<output>
				<port id="5" precision="FP32" names="/features/features.1/features.1.0/block/block.0/block.0.2/Sigmoid_output_0_DequantizeLinear_Output">
					<dim>1</dim>
					<dim>32</dim>
					<dim>112</dim>
					<dim>112</dim>
				</port>
			</output>
		</layer>
		<layer id="50" name="/features/features.1/features.1.0/block/block.0/block.0.2/Mul" type="Multiply" version="opset1">
			<data auto_broadcast="numpy" />
			<input>
				<port id="0" precision="FP32">
					<dim>1</dim>
					<dim>32</dim>
					<dim>112</dim>
					<dim>112</dim>
				</port>
				<port id="1" precision="FP32">
					<dim>1</dim>
					<dim>32</dim>
					<dim>112</dim>
					<dim>112</dim>
				</port>
			</input>
			<output>
				<port id="2" precision="FP32" names="/features/features.1/features.1.0/block/block.0/block.0.2/Mul_output_0">
					<dim>1</dim>
					<dim>32</dim>
					<dim>112</dim>
					<dim>112</dim>
				</port>
			</output>
		</layer>
		<layer id="51" name="Constant_13988" type="Const" version="opset1">
			<data element_type="f32" shape="1, 1, 1, 1" offset="1496" size="4" />
			<output>
				<port id="0" precision="FP32">
					<dim>1</dim>
					<dim>1</dim>
					<dim>1</dim>
					<dim>1</dim>
				</port>
			</output>
		</layer>
		<layer id="52" name="Constant_13989" type="Const" version="opset1">
			<data element_type="f32" shape="1, 1, 1, 1" offset="1500" size="4" />
			<output>
				<port id="0" precision="FP32">
					<dim>1</dim>
					<dim>1</dim>
					<dim>1</dim>
					<dim>1</dim>
				</port>
			</output>
		</layer>
		<layer id="53" name="Constant_13990" type="Const" version="opset1">
			<data element_type="f32" shape="1, 1, 1, 1" offset="1496" size="4" />
			<output>
				<port id="0" precision="FP32">
					<dim>1</dim>
					<dim>1</dim>
					<dim>1</dim>
					<dim>1</dim>
				</port>
			</output>
		</layer>
		<layer id="54" name="Constant_13991" type="Const" version="opset1">
			<data element_type="f32" shape="1, 1, 1, 1" offset="1500" size="4" />
			<output>
				<port id="0" precision="FP32">
					<dim>1</dim>
					<dim>1</dim>
					<dim>1</dim>
					<dim>1</dim>
				</port>
			</output>
		</layer>
		<layer id="55" name="/features/features.1/features.1.0/block/block.0/block.0.2/Mul_output_0_DequantizeLinear" type="FakeQuantize" version="opset1">
			<data levels="256" auto_broadcast="numpy" />
			<input>
				<port id="0" precision="FP32">
					<dim>1</dim>
					<dim>32</dim>
					<dim>112</dim>
					<dim>112</dim>
				</port>
				<port id="1" precision="FP32">
					<dim>1</dim>
					<dim>1</dim>
					<dim>1</dim>
					<dim>1</dim>
				</port>
				<port id="2" precision="FP32">
					<dim>1</dim>
					<dim>1</dim>
					<dim>1</dim>
					<dim>1</dim>
				</port>
				<port id="3" precision="FP32">
					<dim>1</dim>
					<dim>1</dim>
					<dim>1</dim>
					<dim>1</dim>
				</port>
				<port id="4" precision="FP32">
					<dim>1</dim>
					<dim>1</dim>
					<dim>1</dim>
					<dim>1</dim>
				</port>
			</input>
			<output>
				<port id="5" precision="FP32" names="/features/features.1/features.1.0/block/block.0/block.0.2/Mul_output_0_DequantizeLinear_Output">
					<dim>1</dim>
					<dim>32</dim>
					<dim>112</dim>
					<dim>112</dim>
				</port>
			</output>
		</layer>
		<layer id="56" name="Range_1817" type="Const" version="opset1">
			<data element_type="i64" shape="2" offset="1504" size="16" />
			<output>
				<port id="0" precision="I64">
					<dim>2</dim>
				</port>
			</output>
		</layer>
		<layer id="57" name="/features/features.1/features.1.0/block/block.1/avgpool/GlobalAveragePool" type="ReduceMean" version="opset1">
			<data keep_dims="true" />
			<input>
				<port id="0" precision="FP32">
					<dim>1</dim>
					<dim>32</dim>
					<dim>112</dim>
					<dim>112</dim>
				</port>
				<port id="1" precision="I64">
					<dim>2</dim>
				</port>
			</input>
			<output>
				<port id="2" precision="FP32" names="/features/features.1/features.1.0/block/block.1/avgpool/GlobalAveragePool_output_0">
					<dim>1</dim>
					<dim>32</dim>
					<dim>1</dim>
					<dim>1</dim>
				</port>
			</output>
		</layer>
		<layer id="58" name="Constant_13992" type="Const" version="opset1">
			<data element_type="f32" shape="1, 1, 1, 1" offset="1520" size="4" />
			<output>
				<port id="0" precision="FP32">
					<dim>1</dim>
					<dim>1</dim>
					<dim>1</dim>
					<dim>1</dim>
				</port>
			</output>
		</layer>
		<layer id="59" name="Constant_13993" type="Const" version="opset1">
			<data element_type="f32" shape="1, 1, 1, 1" offset="1524" size="4" />
			<output>
				<port id="0" precision="FP32">
					<dim>1</dim>
					<dim>1</dim>
					<dim>1</dim>
					<dim>1</dim>
				</port>
			</output>
		</layer>
		<layer id="60" name="Constant_13994" type="Const" version="opset1">
			<data element_type="f32" shape="1, 1, 1, 1" offset="1520" size="4" />
			<output>
				<port id="0" precision="FP32">
					<dim>1</dim>
					<dim>1</dim>
					<dim>1</dim>
					<dim>1</dim>
				</port>
			</output>
		</layer>
		<layer id="61" name="Constant_13995" type="Const" version="opset1">
			<data element_type="f32" shape="1, 1, 1, 1" offset="1524" size="4" />
			<output>
				<port id="0" precision="FP32">
					<dim>1</dim>
					<dim>1</dim>
					<dim>1</dim>
					<dim>1</dim>
				</port>
			</output>
		</layer>
		<layer id="62" name="/features/features.1/features.1.0/block/block.1/avgpool/GlobalAveragePool_output_0_DequantizeLinear" type="FakeQuantize" version="opset1">
			<data levels="256" auto_broadcast="numpy" />
			<input>
				<port id="0" precision="FP32">
					<dim>1</dim>
					<dim>32</dim>
					<dim>1</dim>
					<dim>1</dim>
				</port>
				<port id="1" precision="FP32">
					<dim>1</dim>
					<dim>1</dim>
					<dim>1</dim>
					<dim>1</dim>
				</port>
				<port id="2" precision="FP32">
					<dim>1</dim>
					<dim>1</dim>
					<dim>1</dim>
					<dim>1</dim>
				</port>
				<port id="3" precision="FP32">
					<dim>1</dim>
					<dim>1</dim>
					<dim>1</dim>
					<dim>1</dim>
				</port>
				<port id="4" precision="FP32">
					<dim>1</dim>
					<dim>1</dim>
					<dim>1</dim>
					<dim>1</dim>
				</port>
			</input>
			<output>
				<port id="5" precision="FP32" names="/features/features.1/features.1.0/block/block.1/avgpool/GlobalAveragePool_output_0_DequantizeLinear_Output">
					<dim>1</dim>
					<dim>32</dim>
					<dim>1</dim>
					<dim>1</dim>
				</port>
			</output>
		</layer>
		<layer id="63" name="features.1.0.block.1.fc1.weight_quantized" type="Const" version="opset1">
			<data element_type="i8" shape="8, 32, 1, 1" offset="1528" size="256" />
			<output>
				<port id="0" precision="I8" names="features.1.0.block.1.fc1.weight_quantized">
					<dim>8</dim>
					<dim>32</dim>
					<dim>1</dim>
					<dim>1</dim>
				</port>
			</output>
		</layer>
		<layer id="64" name="Convert_987" type="Convert" version="opset1">
			<data destination_type="f32" />
			<input>
				<port id="0" precision="I8">
					<dim>8</dim>
					<dim>32</dim>
					<dim>1</dim>
					<dim>1</dim>
				</port>
			</input>
			<output>
				<port id="1" precision="FP32">
					<dim>8</dim>
					<dim>32</dim>
					<dim>1</dim>
					<dim>1</dim>
				</port>
			</output>
		</layer>
		<layer id="65" name="Constant_13996" type="Const" version="opset1">
			<data element_type="f32" shape="1, 1, 1, 1" offset="1784" size="4" />
			<output>
				<port id="0" precision="FP32">
					<dim>1</dim>
					<dim>1</dim>
					<dim>1</dim>
					<dim>1</dim>
				</port>
			</output>
		</layer>
		<layer id="66" name="features.1.0.block.1.fc1.weight_DequantizeLinear" type="Multiply" version="opset1">
			<data auto_broadcast="numpy" />
			<input>
				<port id="0" precision="FP32">
					<dim>8</dim>
					<dim>32</dim>
					<dim>1</dim>
					<dim>1</dim>
				</port>
				<port id="1" precision="FP32">
					<dim>1</dim>
					<dim>1</dim>
					<dim>1</dim>
					<dim>1</dim>
				</port>
			</input>
			<output>
				<port id="2" precision="FP32" names="features.1.0.block.1.fc1.weight_DequantizeLinear_Output">
					<dim>8</dim>
					<dim>32</dim>
					<dim>1</dim>
					<dim>1</dim>
				</port>
			</output>
		</layer>
		<layer id="67" name="/features/features.1/features.1.0/block/block.1/fc1/Conv/WithoutBiases" type="Convolution" version="opset1">
			<data strides="1, 1" dilations="1, 1" pads_begin="0, 0" pads_end="0, 0" auto_pad="explicit" />
			<input>
				<port id="0" precision="FP32">
					<dim>1</dim>
					<dim>32</dim>
					<dim>1</dim>
					<dim>1</dim>
				</port>
				<port id="1" precision="FP32">
					<dim>8</dim>
					<dim>32</dim>
					<dim>1</dim>
					<dim>1</dim>
				</port>
			</input>
			<output>
				<port id="2" precision="FP32">
					<dim>1</dim>
					<dim>8</dim>
					<dim>1</dim>
					<dim>1</dim>
				</port>
			</output>
		</layer>
		<layer id="68" name="Reshape_1847" type="Const" version="opset1">
			<data element_type="f32" shape="1, 8, 1, 1" offset="1788" size="32" />
			<output>
				<port id="0" precision="FP32">
					<dim>1</dim>
					<dim>8</dim>
					<dim>1</dim>
					<dim>1</dim>
				</port>
			</output>
		</layer>
		<layer id="69" name="/features/features.1/features.1.0/block/block.1/fc1/Conv" type="Add" version="opset1">
			<data auto_broadcast="numpy" />
			<input>
				<port id="0" precision="FP32">
					<dim>1</dim>
					<dim>8</dim>
					<dim>1</dim>
					<dim>1</dim>
				</port>
				<port id="1" precision="FP32">
					<dim>1</dim>
					<dim>8</dim>
					<dim>1</dim>
					<dim>1</dim>
				</port>
			</input>
			<output>
				<port id="2" precision="FP32" names="/features/features.1/features.1.0/block/block.1/fc1/Conv_output_0">
					<dim>1</dim>
					<dim>8</dim>
					<dim>1</dim>
					<dim>1</dim>
				</port>
			</output>
		</layer>
		<layer id="70" name="Constant_13997" type="Const" version="opset1">
			<data element_type="f32" shape="1, 1, 1, 1" offset="1820" size="4" />
			<output>
				<port id="0" precision="FP32">
					<dim>1</dim>
					<dim>1</dim>
					<dim>1</dim>
					<dim>1</dim>
				</port>
			</output>
		</layer>
		<layer id="71" name="Constant_13998" type="Const" version="opset1">
			<data element_type="f32" shape="1, 1, 1, 1" offset="1012" size="4" />
			<output>
				<port id="0" precision="FP32">
					<dim>1</dim>
					<dim>1</dim>
					<dim>1</dim>
					<dim>1</dim>
				</port>
			</output>
		</layer>
		<layer id="72" name="Constant_13999" type="Const" version="opset1">
			<data element_type="f32" shape="1, 1, 1, 1" offset="1820" size="4" />
			<output>
				<port id="0" precision="FP32">
					<dim>1</dim>
					<dim>1</dim>
					<dim>1</dim>
					<dim>1</dim>
				</port>
			</output>
		</layer>
		<layer id="73" name="Constant_14000" type="Const" version="opset1">
			<data element_type="f32" shape="1, 1, 1, 1" offset="1012" size="4" />
			<output>
				<port id="0" precision="FP32">
					<dim>1</dim>
					<dim>1</dim>
					<dim>1</dim>
					<dim>1</dim>
				</port>
			</output>
		</layer>
		<layer id="74" name="/features/features.1/features.1.0/block/block.1/fc1/Conv_output_0_DequantizeLinear" type="FakeQuantize" version="opset1">
			<data levels="256" auto_broadcast="numpy" />
			<input>
				<port id="0" precision="FP32">
					<dim>1</dim>
					<dim>8</dim>
					<dim>1</dim>
					<dim>1</dim>
				</port>
				<port id="1" precision="FP32">
					<dim>1</dim>
					<dim>1</dim>
					<dim>1</dim>
					<dim>1</dim>
				</port>
				<port id="2" precision="FP32">
					<dim>1</dim>
					<dim>1</dim>
					<dim>1</dim>
					<dim>1</dim>
				</port>
				<port id="3" precision="FP32">
					<dim>1</dim>
					<dim>1</dim>
					<dim>1</dim>
					<dim>1</dim>
				</port>
				<port id="4" precision="FP32">
					<dim>1</dim>
					<dim>1</dim>
					<dim>1</dim>
					<dim>1</dim>
				</port>
			</input>
			<output>
				<port id="5" precision="FP32" names="/features/features.1/features.1.0/block/block.1/fc1/Conv_output_0_DequantizeLinear_Output">
					<dim>1</dim>
					<dim>8</dim>
					<dim>1</dim>
					<dim>1</dim>
				</port>
			</output>
		</layer>
		<layer id="75" name="/features/features.1/features.1.0/block/block.1/activation/Sigmoid" type="Sigmoid" version="opset1">
			<input>
				<port id="0" precision="FP32">
					<dim>1</dim>
					<dim>8</dim>
					<dim>1</dim>
					<dim>1</dim>
				</port>
			</input>
			<output>
				<port id="1" precision="FP32" names="/features/features.1/features.1.0/block/block.1/activation/Sigmoid_output_0">
					<dim>1</dim>
					<dim>8</dim>
					<dim>1</dim>
					<dim>1</dim>
				</port>
			</output>
		</layer>
		<layer id="76" name="Constant_14001" type="Const" version="opset1">
			<data element_type="f32" shape="1, 1, 1, 1" offset="1012" size="4" />
			<output>
				<port id="0" precision="FP32">
					<dim>1</dim>
					<dim>1</dim>
					<dim>1</dim>
					<dim>1</dim>
				</port>
			</output>
		</layer>
		<layer id="77" name="Constant_14002" type="Const" version="opset1">
			<data element_type="f32" shape="1, 1, 1, 1" offset="1824" size="4" />
			<output>
				<port id="0" precision="FP32">
					<dim>1</dim>
					<dim>1</dim>
					<dim>1</dim>
					<dim>1</dim>
				</port>
			</output>
		</layer>
		<layer id="78" name="Constant_14003" type="Const" version="opset1">
			<data element_type="f32" shape="1, 1, 1, 1" offset="1012" size="4" />
			<output>
				<port id="0" precision="FP32">
					<dim>1</dim>
					<dim>1</dim>
					<dim>1</dim>
					<dim>1</dim>
				</port>
			</output>
		</layer>
		<layer id="79" name="Constant_14004" type="Const" version="opset1">
			<data element_type="f32" shape="1, 1, 1, 1" offset="1824" size="4" />
			<output>
				<port id="0" precision="FP32">
					<dim>1</dim>
					<dim>1</dim>
					<dim>1</dim>
					<dim>1</dim>
				</port>
			</output>
		</layer>
		<layer id="80" name="/features/features.1/features.1.0/block/block.1/activation/Sigmoid_output_0_DequantizeLinear" type="FakeQuantize" version="opset1">
			<data levels="256" auto_broadcast="numpy" />
			<input>
				<port id="0" precision="FP32">
					<dim>1</dim>
					<dim>8</dim>
					<dim>1</dim>
					<dim>1</dim>
				</port>
				<port id="1" precision="FP32">
					<dim>1</dim>
					<dim>1</dim>
					<dim>1</dim>
					<dim>1</dim>
				</port>
				<port id="2" precision="FP32">
					<dim>1</dim>
					<dim>1</dim>
					<dim>1</dim>
					<dim>1</dim>
				</port>
				<port id="3" precision="FP32">
					<dim>1</dim>
					<dim>1</dim>
					<dim>1</dim>
					<dim>1</dim>
				</port>
				<port id="4" precision="FP32">
					<dim>1</dim>
					<dim>1</dim>
					<dim>1</dim>
					<dim>1</dim>
				</port>
			</input>
			<output>
				<port id="5" precision="FP32" names="/features/features.1/features.1.0/block/block.1/activation/Sigmoid_output_0_DequantizeLinear_Output">
					<dim>1</dim>
					<dim>8</dim>
					<dim>1</dim>
					<dim>1</dim>
				</port>
			</output>
		</layer>
		<layer id="81" name="/features/features.1/features.1.0/block/block.1/activation/Mul" type="Multiply" version="opset1">
			<data auto_broadcast="numpy" />
			<input>
				<port id="0" precision="FP32">
					<dim>1</dim>
					<dim>8</dim>
					<dim>1</dim>
					<dim>1</dim>
				</port>
				<port id="1" precision="FP32">
					<dim>1</dim>
					<dim>8</dim>
					<dim>1</dim>
					<dim>1</dim>
				</port>
			</input>
			<output>
				<port id="2" precision="FP32" names="/features/features.1/features.1.0/block/block.1/activation/Mul_output_0">
					<dim>1</dim>
					<dim>8</dim>
					<dim>1</dim>
					<dim>1</dim>
				</port>
			</output>
		</layer>
		<layer id="82" name="Constant_14005" type="Const" version="opset1">
			<data element_type="f32" shape="1, 1, 1, 1" offset="1828" size="4" />
			<output>
				<port id="0" precision="FP32">
					<dim>1</dim>
					<dim>1</dim>
					<dim>1</dim>
					<dim>1</dim>
				</port>
			</output>
		</layer>
		<layer id="83" name="Constant_14006" type="Const" version="opset1">
			<data element_type="f32" shape="1, 1, 1, 1" offset="1012" size="4" />
			<output>
				<port id="0" precision="FP32">
					<dim>1</dim>
					<dim>1</dim>
					<dim>1</dim>
					<dim>1</dim>
				</port>
			</output>
		</layer>
		<layer id="84" name="Constant_14007" type="Const" version="opset1">
			<data element_type="f32" shape="1, 1, 1, 1" offset="1828" size="4" />
			<output>
				<port id="0" precision="FP32">
					<dim>1</dim>
					<dim>1</dim>
					<dim>1</dim>
					<dim>1</dim>
				</port>
			</output>
		</layer>
		<layer id="85" name="Constant_14008" type="Const" version="opset1">
			<data element_type="f32" shape="1, 1, 1, 1" offset="1012" size="4" />
			<output>
				<port id="0" precision="FP32">
					<dim>1</dim>
					<dim>1</dim>
					<dim>1</dim>
					<dim>1</dim>
				</port>
			</output>
		</layer>
		<layer id="86" name="/features/features.1/features.1.0/block/block.1/activation/Mul_output_0_DequantizeLinear" type="FakeQuantize" version="opset1">
			<data levels="256" auto_broadcast="numpy" />
			<input>
				<port id="0" precision="FP32">
					<dim>1</dim>
					<dim>8</dim>
					<dim>1</dim>
					<dim>1</dim>
				</port>
				<port id="1" precision="FP32">
					<dim>1</dim>
					<dim>1</dim>
					<dim>1</dim>
					<dim>1</dim>
				</port>
				<port id="2" precision="FP32">
					<dim>1</dim>
					<dim>1</dim>
					<dim>1</dim>
					<dim>1</dim>
				</port>
				<port id="3" precision="FP32">
					<dim>1</dim>
					<dim>1</dim>
					<dim>1</dim>
					<dim>1</dim>
				</port>
				<port id="4" precision="FP32">
					<dim>1</dim>
					<dim>1</dim>
					<dim>1</dim>
					<dim>1</dim>
				</port>
			</input>
			<output>
				<port id="5" precision="FP32" names="/features/features.1/features.1.0/block/block.1/activation/Mul_output_0_DequantizeLinear_Output">
					<dim>1</dim>
					<dim>8</dim>
					<dim>1</dim>
					<dim>1</dim>
				</port>
			</output>
		</layer>
		<layer id="87" name="features.1.0.block.1.fc2.weight_quantized" type="Const" version="opset1">
			<data element_type="i8" shape="32, 8, 1, 1" offset="1832" size="256" />
			<output>
				<port id="0" precision="I8" names="features.1.0.block.1.fc2.weight_quantized">
					<dim>32</dim>
					<dim>8</dim>
					<dim>1</dim>
					<dim>1</dim>
				</port>
			</output>
		</layer>
		<layer id="88" name="Convert_995" type="Convert" version="opset1">
			<data destination_type="f32" />
			<input>
				<port id="0" precision="I8">
					<dim>32</dim>
					<dim>8</dim>
					<dim>1</dim>
					<dim>1</dim>
				</port>
			</input>
			<output>
				<port id="1" precision="FP32">
					<dim>32</dim>
					<dim>8</dim>
					<dim>1</dim>
					<dim>1</dim>
				</port>
			</output>
		</layer>
		<layer id="89" name="Constant_14009" type="Const" version="opset1">
			<data element_type="f32" shape="1, 1, 1, 1" offset="2088" size="4" />
			<output>
				<port id="0" precision="FP32">
					<dim>1</dim>
					<dim>1</dim>
					<dim>1</dim>
					<dim>1</dim>
				</port>
			</output>
		</layer>
		<layer id="90" name="features.1.0.block.1.fc2.weight_DequantizeLinear" type="Multiply" version="opset1">
			<data auto_broadcast="numpy" />
			<input>
				<port id="0" precision="FP32">
					<dim>32</dim>
					<dim>8</dim>
					<dim>1</dim>
					<dim>1</dim>
				</port>
				<port id="1" precision="FP32">
					<dim>1</dim>
					<dim>1</dim>
					<dim>1</dim>
					<dim>1</dim>
				</port>
			</input>
			<output>
				<port id="2" precision="FP32" names="features.1.0.block.1.fc2.weight_DequantizeLinear_Output">
					<dim>32</dim>
					<dim>8</dim>
					<dim>1</dim>
					<dim>1</dim>
				</port>
			</output>
		</layer>
		<layer id="91" name="/features/features.1/features.1.0/block/block.1/fc2/Conv/WithoutBiases" type="Convolution" version="opset1">
			<data strides="1, 1" dilations="1, 1" pads_begin="0, 0" pads_end="0, 0" auto_pad="explicit" />
			<input>
				<port id="0" precision="FP32">
					<dim>1</dim>
					<dim>8</dim>
					<dim>1</dim>
					<dim>1</dim>
				</port>
				<port id="1" precision="FP32">
					<dim>32</dim>
					<dim>8</dim>
					<dim>1</dim>
					<dim>1</dim>
				</port>
			</input>
			<output>
				<port id="2" precision="FP32">
					<dim>1</dim>
					<dim>32</dim>
					<dim>1</dim>
					<dim>1</dim>
				</port>
			</output>
		</layer>
		<layer id="92" name="Reshape_1907" type="Const" version="opset1">
			<data element_type="f32" shape="1, 32, 1, 1" offset="2092" size="128" />
			<output>
				<port id="0" precision="FP32">
					<dim>1</dim>
					<dim>32</dim>
					<dim>1</dim>
					<dim>1</dim>
				</port>
			</output>
		</layer>
		<layer id="93" name="/features/features.1/features.1.0/block/block.1/fc2/Conv" type="Add" version="opset1">
			<data auto_broadcast="numpy" />
			<input>
				<port id="0" precision="FP32">
					<dim>1</dim>
					<dim>32</dim>
					<dim>1</dim>
					<dim>1</dim>
				</port>
				<port id="1" precision="FP32">
					<dim>1</dim>
					<dim>32</dim>
					<dim>1</dim>
					<dim>1</dim>
				</port>
			</input>
			<output>
				<port id="2" precision="FP32" names="/features/features.1/features.1.0/block/block.1/fc2/Conv_output_0">
					<dim>1</dim>
					<dim>32</dim>
					<dim>1</dim>
					<dim>1</dim>
				</port>
			</output>
		</layer>
		<layer id="94" name="Constant_14010" type="Const" version="opset1">
			<data element_type="f32" shape="1, 1, 1, 1" offset="2220" size="4" />
			<output>
				<port id="0" precision="FP32">
					<dim>1</dim>
					<dim>1</dim>
					<dim>1</dim>
					<dim>1</dim>
				</port>
			</output>
		</layer>
		<layer id="95" name="Constant_14011" type="Const" version="opset1">
			<data element_type="f32" shape="1, 1, 1, 1" offset="2224" size="4" />
			<output>
				<port id="0" precision="FP32">
					<dim>1</dim>
					<dim>1</dim>
					<dim>1</dim>
					<dim>1</dim>
				</port>
			</output>
		</layer>
		<layer id="96" name="Constant_14012" type="Const" version="opset1">
			<data element_type="f32" shape="1, 1, 1, 1" offset="2220" size="4" />
			<output>
				<port id="0" precision="FP32">
					<dim>1</dim>
					<dim>1</dim>
					<dim>1</dim>
					<dim>1</dim>
				</port>
			</output>
		</layer>
		<layer id="97" name="Constant_14013" type="Const" version="opset1">
			<data element_type="f32" shape="1, 1, 1, 1" offset="2224" size="4" />
			<output>
				<port id="0" precision="FP32">
					<dim>1</dim>
					<dim>1</dim>
					<dim>1</dim>
					<dim>1</dim>
				</port>
			</output>
		</layer>
		<layer id="98" name="/features/features.1/features.1.0/block/block.1/fc2/Conv_output_0_DequantizeLinear" type="FakeQuantize" version="opset1">
			<data levels="256" auto_broadcast="numpy" />
			<input>
				<port id="0" precision="FP32">
					<dim>1</dim>
					<dim>32</dim>
					<dim>1</dim>
					<dim>1</dim>
				</port>
				<port id="1" precision="FP32">
					<dim>1</dim>
					<dim>1</dim>
					<dim>1</dim>
					<dim>1</dim>
				</port>
				<port id="2" precision="FP32">
					<dim>1</dim>
					<dim>1</dim>
					<dim>1</dim>
					<dim>1</dim>
				</port>
				<port id="3" precision="FP32">
					<dim>1</dim>
					<dim>1</dim>
					<dim>1</dim>
					<dim>1</dim>
				</port>
				<port id="4" precision="FP32">
					<dim>1</dim>
					<dim>1</dim>
					<dim>1</dim>
					<dim>1</dim>
				</port>
			</input>
			<output>
				<port id="5" precision="FP32" names="/features/features.1/features.1.0/block/block.1/fc2/Conv_output_0_DequantizeLinear_Output">
					<dim>1</dim>
					<dim>32</dim>
					<dim>1</dim>
					<dim>1</dim>
				</port>
			</output>
		</layer>
		<layer id="99" name="/features/features.1/features.1.0/block/block.1/scale_activation/Sigmoid" type="Sigmoid" version="opset1">
			<input>
				<port id="0" precision="FP32">
					<dim>1</dim>
					<dim>32</dim>
					<dim>1</dim>
					<dim>1</dim>
				</port>
			</input>
			<output>
				<port id="1" precision="FP32" names="/features/features.1/features.1.0/block/block.1/scale_activation/Sigmoid_output_0">
					<dim>1</dim>
					<dim>32</dim>
					<dim>1</dim>
					<dim>1</dim>
				</port>
			</output>
		</layer>
		<layer id="100" name="Constant_14014" type="Const" version="opset1">
			<data element_type="f32" shape="1, 1, 1, 1" offset="1012" size="4" />
			<output>
				<port id="0" precision="FP32">
					<dim>1</dim>
					<dim>1</dim>
					<dim>1</dim>
					<dim>1</dim>
				</port>
			</output>
		</layer>
		<layer id="101" name="Constant_14015" type="Const" version="opset1">
			<data element_type="f32" shape="1, 1, 1, 1" offset="2228" size="4" />
			<output>
				<port id="0" precision="FP32">
					<dim>1</dim>
					<dim>1</dim>
					<dim>1</dim>
					<dim>1</dim>
				</port>
			</output>
		</layer>
		<layer id="102" name="Constant_14016" type="Const" version="opset1">
			<data element_type="f32" shape="1, 1, 1, 1" offset="1012" size="4" />
			<output>
				<port id="0" precision="FP32">
					<dim>1</dim>
					<dim>1</dim>
					<dim>1</dim>
					<dim>1</dim>
				</port>
			</output>
		</layer>
		<layer id="103" name="Constant_14017" type="Const" version="opset1">
			<data element_type="f32" shape="1, 1, 1, 1" offset="2228" size="4" />
			<output>
				<port id="0" precision="FP32">
					<dim>1</dim>
					<dim>1</dim>
					<dim>1</dim>
					<dim>1</dim>
				</port>
			</output>
		</layer>
		<layer id="104" name="/features/features.1/features.1.0/block/block.1/scale_activation/Sigmoid_output_0_DequantizeLinear" type="FakeQuantize" version="opset1">
			<data levels="256" auto_broadcast="numpy" />
			<input>
				<port id="0" precision="FP32">
					<dim>1</dim>
					<dim>32</dim>
					<dim>1</dim>
					<dim>1</dim>
				</port>
				<port id="1" precision="FP32">
					<dim>1</dim>
					<dim>1</dim>
					<dim>1</dim>
					<dim>1</dim>
				</port>
				<port id="2" precision="FP32">
					<dim>1</dim>
					<dim>1</dim>
					<dim>1</dim>
					<dim>1</dim>
				</port>
				<port id="3" precision="FP32">
					<dim>1</dim>
					<dim>1</dim>
					<dim>1</dim>
					<dim>1</dim>
				</port>
				<port id="4" precision="FP32">
					<dim>1</dim>
					<dim>1</dim>
					<dim>1</dim>
					<dim>1</dim>
				</port>
			</input>
			<output>
				<port id="5" precision="FP32" names="/features/features.1/features.1.0/block/block.1/scale_activation/Sigmoid_output_0_DequantizeLinear_Output">
					<dim>1</dim>
					<dim>32</dim>
					<dim>1</dim>
					<dim>1</dim>
				</port>
			</output>
		</layer>
		<layer id="105" name="/features/features.1/features.1.0/block/block.1/Mul" type="Multiply" version="opset1">
			<data auto_broadcast="numpy" />
			<input>
				<port id="0" precision="FP32">
					<dim>1</dim>
					<dim>32</dim>
					<dim>1</dim>
					<dim>1</dim>
				</port>
				<port id="1" precision="FP32">
					<dim>1</dim>
					<dim>32</dim>
					<dim>112</dim>
					<dim>112</dim>
				</port>
			</input>
			<output>
				<port id="2" precision="FP32" names="/features/features.1/features.1.0/block/block.1/Mul_output_0">
					<dim>1</dim>
					<dim>32</dim>
					<dim>112</dim>
					<dim>112</dim>
				</port>
			</output>
		</layer>
		<layer id="106" name="Constant_14018" type="Const" version="opset1">
			<data element_type="f32" shape="1, 1, 1, 1" offset="2232" size="4" />
			<output>
				<port id="0" precision="FP32">
					<dim>1</dim>
					<dim>1</dim>
					<dim>1</dim>
					<dim>1</dim>
				</port>
			</output>
		</layer>
		<layer id="107" name="Constant_14019" type="Const" version="opset1">
			<data element_type="f32" shape="1, 1, 1, 1" offset="2236" size="4" />
			<output>
				<port id="0" precision="FP32">
					<dim>1</dim>
					<dim>1</dim>
					<dim>1</dim>
					<dim>1</dim>
				</port>
			</output>
		</layer>
		<layer id="108" name="Constant_14020" type="Const" version="opset1">
			<data element_type="f32" shape="1, 1, 1, 1" offset="2232" size="4" />
			<output>
				<port id="0" precision="FP32">
					<dim>1</dim>
					<dim>1</dim>
					<dim>1</dim>
					<dim>1</dim>
				</port>
			</output>
		</layer>
		<layer id="109" name="Constant_14021" type="Const" version="opset1">
			<data element_type="f32" shape="1, 1, 1, 1" offset="2236" size="4" />
			<output>
				<port id="0" precision="FP32">
					<dim>1</dim>
					<dim>1</dim>
					<dim>1</dim>
					<dim>1</dim>
				</port>
			</output>
		</layer>
		<layer id="110" name="/features/features.1/features.1.0/block/block.1/Mul_output_0_DequantizeLinear" type="FakeQuantize" version="opset1">
			<data levels="256" auto_broadcast="numpy" />
			<input>
				<port id="0" precision="FP32">
					<dim>1</dim>
					<dim>32</dim>
					<dim>112</dim>
					<dim>112</dim>
				</port>
				<port id="1" precision="FP32">
					<dim>1</dim>
					<dim>1</dim>
					<dim>1</dim>
					<dim>1</dim>
				</port>
				<port id="2" precision="FP32">
					<dim>1</dim>
					<dim>1</dim>
					<dim>1</dim>
					<dim>1</dim>
				</port>
				<port id="3" precision="FP32">
					<dim>1</dim>
					<dim>1</dim>
					<dim>1</dim>
					<dim>1</dim>
				</port>
				<port id="4" precision="FP32">
					<dim>1</dim>
					<dim>1</dim>
					<dim>1</dim>
					<dim>1</dim>
				</port>
			</input>
			<output>
				<port id="5" precision="FP32" names="/features/features.1/features.1.0/block/block.1/Mul_output_0_DequantizeLinear_Output">
					<dim>1</dim>
					<dim>32</dim>
					<dim>112</dim>
					<dim>112</dim>
				</port>
			</output>
		</layer>
		<layer id="111" name="onnx::Conv_656_quantized" type="Const" version="opset1">
			<data element_type="i8" shape="16, 32, 1, 1" offset="2240" size="512" />
			<output>
				<port id="0" precision="I8" names="onnx::Conv_656_quantized">
					<dim>16</dim>
					<dim>32</dim>
					<dim>1</dim>
					<dim>1</dim>
				</port>
			</output>
		</layer>
		<layer id="112" name="Convert_1266" type="Convert" version="opset1">
			<data destination_type="f32" />
			<input>
				<port id="0" precision="I8">
					<dim>16</dim>
					<dim>32</dim>
					<dim>1</dim>
					<dim>1</dim>
				</port>
			</input>
			<output>
				<port id="1" precision="FP32">
					<dim>16</dim>
					<dim>32</dim>
					<dim>1</dim>
					<dim>1</dim>
				</port>
			</output>
		</layer>
		<layer id="113" name="Constant_14022" type="Const" version="opset1">
			<data element_type="f32" shape="1, 1, 1, 1" offset="2752" size="4" />
			<output>
				<port id="0" precision="FP32">
					<dim>1</dim>
					<dim>1</dim>
					<dim>1</dim>
					<dim>1</dim>
				</port>
			</output>
		</layer>
		<layer id="114" name="onnx::Conv_656_DequantizeLinear" type="Multiply" version="opset1">
			<data auto_broadcast="numpy" />
			<input>
				<port id="0" precision="FP32">
					<dim>16</dim>
					<dim>32</dim>
					<dim>1</dim>
					<dim>1</dim>
				</port>
				<port id="1" precision="FP32">
					<dim>1</dim>
					<dim>1</dim>
					<dim>1</dim>
					<dim>1</dim>
				</port>
			</input>
			<output>
				<port id="2" precision="FP32" names="onnx::Conv_656_DequantizeLinear_Output">
					<dim>16</dim>
					<dim>32</dim>
					<dim>1</dim>
					<dim>1</dim>
				</port>
			</output>
		</layer>
		<layer id="115" name="/features/features.1/features.1.0/block/block.2/block.2.0/Conv/WithoutBiases" type="Convolution" version="opset1">
			<data strides="1, 1" dilations="1, 1" pads_begin="0, 0" pads_end="0, 0" auto_pad="explicit" />
			<input>
				<port id="0" precision="FP32">
					<dim>1</dim>
					<dim>32</dim>
					<dim>112</dim>
					<dim>112</dim>
				</port>
				<port id="1" precision="FP32">
					<dim>16</dim>
					<dim>32</dim>
					<dim>1</dim>
					<dim>1</dim>
				</port>
			</input>
			<output>
				<port id="2" precision="FP32">
					<dim>1</dim>
					<dim>16</dim>
					<dim>112</dim>
					<dim>112</dim>
				</port>
			</output>
		</layer>
		<layer id="116" name="Reshape_1967" type="Const" version="opset1">
			<data element_type="f32" shape="1, 16, 1, 1" offset="2756" size="64" />
			<output>
				<port id="0" precision="FP32">
					<dim>1</dim>
					<dim>16</dim>
					<dim>1</dim>
					<dim>1</dim>
				</port>
			</output>
		</layer>
		<layer id="117" name="/features/features.1/features.1.0/block/block.2/block.2.0/Conv" type="Add" version="opset1">
			<data auto_broadcast="numpy" />
			<input>
				<port id="0" precision="FP32">
					<dim>1</dim>
					<dim>16</dim>
					<dim>112</dim>
					<dim>112</dim>
				</port>
				<port id="1" precision="FP32">
					<dim>1</dim>
					<dim>16</dim>
					<dim>1</dim>
					<dim>1</dim>
				</port>
			</input>
			<output>
				<port id="2" precision="FP32" names="/features/features.1/features.1.0/block/block.2/block.2.0/Conv_output_0">
					<dim>1</dim>
					<dim>16</dim>
					<dim>112</dim>
					<dim>112</dim>
				</port>
			</output>
		</layer>
		<layer id="118" name="Constant_14023" type="Const" version="opset1">
			<data element_type="f32" shape="1, 1, 1, 1" offset="2820" size="4" />
			<output>
				<port id="0" precision="FP32">
					<dim>1</dim>
					<dim>1</dim>
					<dim>1</dim>
					<dim>1</dim>
				</port>
			</output>
		</layer>
		<layer id="119" name="Constant_14024" type="Const" version="opset1">
			<data element_type="f32" shape="1, 1, 1, 1" offset="2824" size="4" />
			<output>
				<port id="0" precision="FP32">
					<dim>1</dim>
					<dim>1</dim>
					<dim>1</dim>
					<dim>1</dim>
				</port>
			</output>
		</layer>
		<layer id="120" name="Constant_14025" type="Const" version="opset1">
			<data element_type="f32" shape="1, 1, 1, 1" offset="2820" size="4" />
			<output>
				<port id="0" precision="FP32">
					<dim>1</dim>
					<dim>1</dim>
					<dim>1</dim>
					<dim>1</dim>
				</port>
			</output>
		</layer>
		<layer id="121" name="Constant_14026" type="Const" version="opset1">
			<data element_type="f32" shape="1, 1, 1, 1" offset="2824" size="4" />
			<output>
				<port id="0" precision="FP32">
					<dim>1</dim>
					<dim>1</dim>
					<dim>1</dim>
					<dim>1</dim>
				</port>
			</output>
		</layer>
		<layer id="122" name="/features/features.1/features.1.0/block/block.2/block.2.0/Conv_output_0_DequantizeLinear" type="FakeQuantize" version="opset1">
			<data levels="256" auto_broadcast="numpy" />
			<input>
				<port id="0" precision="FP32">
					<dim>1</dim>
					<dim>16</dim>
					<dim>112</dim>
					<dim>112</dim>
				</port>
				<port id="1" precision="FP32">
					<dim>1</dim>
					<dim>1</dim>
					<dim>1</dim>
					<dim>1</dim>
				</port>
				<port id="2" precision="FP32">
					<dim>1</dim>
					<dim>1</dim>
					<dim>1</dim>
					<dim>1</dim>
				</port>
				<port id="3" precision="FP32">
					<dim>1</dim>
					<dim>1</dim>
					<dim>1</dim>
					<dim>1</dim>
				</port>
				<port id="4" precision="FP32">
					<dim>1</dim>
					<dim>1</dim>
					<dim>1</dim>
					<dim>1</dim>
				</port>
			</input>
			<output>
				<port id="5" precision="FP32" names="/features/features.1/features.1.0/block/block.2/block.2.0/Conv_output_0_DequantizeLinear_Output">
					<dim>1</dim>
					<dim>16</dim>
					<dim>112</dim>
					<dim>112</dim>
				</port>
			</output>
		</layer>
		<layer id="123" name="onnx::Conv_659_quantized" type="Const" version="opset1">
			<data element_type="i8" shape="96, 16, 1, 1" offset="2828" size="1536" />
			<output>
				<port id="0" precision="I8" names="onnx::Conv_659_quantized">
					<dim>96</dim>
					<dim>16</dim>
					<dim>1</dim>
					<dim>1</dim>
				</port>
			</output>
		</layer>
		<layer id="124" name="Convert_1274" type="Convert" version="opset1">
			<data destination_type="f32" />
			<input>
				<port id="0" precision="I8">
					<dim>96</dim>
					<dim>16</dim>
					<dim>1</dim>
					<dim>1</dim>
				</port>
			</input>
			<output>
				<port id="1" precision="FP32">
					<dim>96</dim>
					<dim>16</dim>
					<dim>1</dim>
					<dim>1</dim>
				</port>
			</output>
		</layer>
		<layer id="125" name="Constant_14027" type="Const" version="opset1">
			<data element_type="f32" shape="1, 1, 1, 1" offset="4364" size="4" />
			<output>
				<port id="0" precision="FP32">
					<dim>1</dim>
					<dim>1</dim>
					<dim>1</dim>
					<dim>1</dim>
				</port>
			</output>
		</layer>
		<layer id="126" name="onnx::Conv_659_DequantizeLinear" type="Multiply" version="opset1">
			<data auto_broadcast="numpy" />
			<input>
				<port id="0" precision="FP32">
					<dim>96</dim>
					<dim>16</dim>
					<dim>1</dim>
					<dim>1</dim>
				</port>
				<port id="1" precision="FP32">
					<dim>1</dim>
					<dim>1</dim>
					<dim>1</dim>
					<dim>1</dim>
				</port>
			</input>
			<output>
				<port id="2" precision="FP32" names="onnx::Conv_659_DequantizeLinear_Output">
					<dim>96</dim>
					<dim>16</dim>
					<dim>1</dim>
					<dim>1</dim>
				</port>
			</output>
		</layer>
		<layer id="127" name="/features/features.2/features.2.0/block/block.0/block.0.0/Conv/WithoutBiases" type="Convolution" version="opset1">
			<data strides="1, 1" dilations="1, 1" pads_begin="0, 0" pads_end="0, 0" auto_pad="explicit" />
			<input>
				<port id="0" precision="FP32">
					<dim>1</dim>
					<dim>16</dim>
					<dim>112</dim>
					<dim>112</dim>
				</port>
				<port id="1" precision="FP32">
					<dim>96</dim>
					<dim>16</dim>
					<dim>1</dim>
					<dim>1</dim>
				</port>
			</input>
			<output>
				<port id="2" precision="FP32">
					<dim>1</dim>
					<dim>96</dim>
					<dim>112</dim>
					<dim>112</dim>
				</port>
			</output>
		</layer>
		<layer id="128" name="Reshape_1995" type="Const" version="opset1">
			<data element_type="f32" shape="1, 96, 1, 1" offset="4368" size="384" />
			<output>
				<port id="0" precision="FP32">
					<dim>1</dim>
					<dim>96</dim>
					<dim>1</dim>
					<dim>1</dim>
				</port>
			</output>
		</layer>
		<layer id="129" name="/features/features.2/features.2.0/block/block.0/block.0.0/Conv" type="Add" version="opset1">
			<data auto_broadcast="numpy" />
			<input>
				<port id="0" precision="FP32">
					<dim>1</dim>
					<dim>96</dim>
					<dim>112</dim>
					<dim>112</dim>
				</port>
				<port id="1" precision="FP32">
					<dim>1</dim>
					<dim>96</dim>
					<dim>1</dim>
					<dim>1</dim>
				</port>
			</input>
			<output>
				<port id="2" precision="FP32" names="/features/features.2/features.2.0/block/block.0/block.0.0/Conv_output_0">
					<dim>1</dim>
					<dim>96</dim>
					<dim>112</dim>
					<dim>112</dim>
				</port>
			</output>
		</layer>
		<layer id="130" name="Constant_14028" type="Const" version="opset1">
			<data element_type="f32" shape="1, 1, 1, 1" offset="4752" size="4" />
			<output>
				<port id="0" precision="FP32">
					<dim>1</dim>
					<dim>1</dim>
					<dim>1</dim>
					<dim>1</dim>
				</port>
			</output>
		</layer>
		<layer id="131" name="Constant_14029" type="Const" version="opset1">
			<data element_type="f32" shape="1, 1, 1, 1" offset="4756" size="4" />
			<output>
				<port id="0" precision="FP32">
					<dim>1</dim>
					<dim>1</dim>
					<dim>1</dim>
					<dim>1</dim>
				</port>
			</output>
		</layer>
		<layer id="132" name="Constant_14030" type="Const" version="opset1">
			<data element_type="f32" shape="1, 1, 1, 1" offset="4752" size="4" />
			<output>
				<port id="0" precision="FP32">
					<dim>1</dim>
					<dim>1</dim>
					<dim>1</dim>
					<dim>1</dim>
				</port>
			</output>
		</layer>
		<layer id="133" name="Constant_14031" type="Const" version="opset1">
			<data element_type="f32" shape="1, 1, 1, 1" offset="4756" size="4" />
			<output>
				<port id="0" precision="FP32">
					<dim>1</dim>
					<dim>1</dim>
					<dim>1</dim>
					<dim>1</dim>
				</port>
			</output>
		</layer>
		<layer id="134" name="/features/features.2/features.2.0/block/block.0/block.0.0/Conv_output_0_DequantizeLinear" type="FakeQuantize" version="opset1">
			<data levels="256" auto_broadcast="numpy" />
			<input>
				<port id="0" precision="FP32">
					<dim>1</dim>
					<dim>96</dim>
					<dim>112</dim>
					<dim>112</dim>
				</port>
				<port id="1" precision="FP32">
					<dim>1</dim>
					<dim>1</dim>
					<dim>1</dim>
					<dim>1</dim>
				</port>
				<port id="2" precision="FP32">
					<dim>1</dim>
					<dim>1</dim>
					<dim>1</dim>
					<dim>1</dim>
				</port>
				<port id="3" precision="FP32">
					<dim>1</dim>
					<dim>1</dim>
					<dim>1</dim>
					<dim>1</dim>
				</port>
				<port id="4" precision="FP32">
					<dim>1</dim>
					<dim>1</dim>
					<dim>1</dim>
					<dim>1</dim>
				</port>
			</input>
			<output>
				<port id="5" precision="FP32" names="/features/features.2/features.2.0/block/block.0/block.0.0/Conv_output_0_DequantizeLinear_Output">
					<dim>1</dim>
					<dim>96</dim>
					<dim>112</dim>
					<dim>112</dim>
				</port>
			</output>
		</layer>
		<layer id="135" name="/features/features.2/features.2.0/block/block.0/block.0.2/Sigmoid" type="Sigmoid" version="opset1">
			<input>
				<port id="0" precision="FP32">
					<dim>1</dim>
					<dim>96</dim>
					<dim>112</dim>
					<dim>112</dim>
				</port>
			</input>
			<output>
				<port id="1" precision="FP32" names="/features/features.2/features.2.0/block/block.0/block.0.2/Sigmoid_output_0">
					<dim>1</dim>
					<dim>96</dim>
					<dim>112</dim>
					<dim>112</dim>
				</port>
			</output>
		</layer>
		<layer id="136" name="Constant_14032" type="Const" version="opset1">
			<data element_type="f32" shape="1, 1, 1, 1" offset="1012" size="4" />
			<output>
				<port id="0" precision="FP32">
					<dim>1</dim>
					<dim>1</dim>
					<dim>1</dim>
					<dim>1</dim>
				</port>
			</output>
		</layer>
		<layer id="137" name="Constant_14033" type="Const" version="opset1">
			<data element_type="f32" shape="1, 1, 1, 1" offset="1016" size="4" />
			<output>
				<port id="0" precision="FP32">
					<dim>1</dim>
					<dim>1</dim>
					<dim>1</dim>
					<dim>1</dim>
				</port>
			</output>
		</layer>
		<layer id="138" name="Constant_14034" type="Const" version="opset1">
			<data element_type="f32" shape="1, 1, 1, 1" offset="1012" size="4" />
			<output>
				<port id="0" precision="FP32">
					<dim>1</dim>
					<dim>1</dim>
					<dim>1</dim>
					<dim>1</dim>
				</port>
			</output>
		</layer>
		<layer id="139" name="Constant_14035" type="Const" version="opset1">
			<data element_type="f32" shape="1, 1, 1, 1" offset="1016" size="4" />
			<output>
				<port id="0" precision="FP32">
					<dim>1</dim>
					<dim>1</dim>
					<dim>1</dim>
					<dim>1</dim>
				</port>
			</output>
		</layer>
		<layer id="140" name="/features/features.2/features.2.0/block/block.0/block.0.2/Sigmoid_output_0_DequantizeLinear" type="FakeQuantize" version="opset1">
			<data levels="256" auto_broadcast="numpy" />
			<input>
				<port id="0" precision="FP32">
					<dim>1</dim>
					<dim>96</dim>
					<dim>112</dim>
					<dim>112</dim>
				</port>
				<port id="1" precision="FP32">
					<dim>1</dim>
					<dim>1</dim>
					<dim>1</dim>
					<dim>1</dim>
				</port>
				<port id="2" precision="FP32">
					<dim>1</dim>
					<dim>1</dim>
					<dim>1</dim>
					<dim>1</dim>
				</port>
				<port id="3" precision="FP32">
					<dim>1</dim>
					<dim>1</dim>
					<dim>1</dim>
					<dim>1</dim>
				</port>
				<port id="4" precision="FP32">
					<dim>1</dim>
					<dim>1</dim>
					<dim>1</dim>
					<dim>1</dim>
				</port>
			</input>
			<output>
				<port id="5" precision="FP32" names="/features/features.2/features.2.0/block/block.0/block.0.2/Sigmoid_output_0_DequantizeLinear_Output">
					<dim>1</dim>
					<dim>96</dim>
					<dim>112</dim>
					<dim>112</dim>
				</port>
			</output>
		</layer>
		<layer id="141" name="/features/features.2/features.2.0/block/block.0/block.0.2/Mul" type="Multiply" version="opset1">
			<data auto_broadcast="numpy" />
			<input>
				<port id="0" precision="FP32">
					<dim>1</dim>
					<dim>96</dim>
					<dim>112</dim>
					<dim>112</dim>
				</port>
				<port id="1" precision="FP32">
					<dim>1</dim>
					<dim>96</dim>
					<dim>112</dim>
					<dim>112</dim>
				</port>
			</input>
			<output>
				<port id="2" precision="FP32" names="/features/features.2/features.2.0/block/block.0/block.0.2/Mul_output_0">
					<dim>1</dim>
					<dim>96</dim>
					<dim>112</dim>
					<dim>112</dim>
				</port>
			</output>
		</layer>
		<layer id="142" name="Constant_14036" type="Const" version="opset1">
			<data element_type="f32" shape="1, 1, 1, 1" offset="4760" size="4" />
			<output>
				<port id="0" precision="FP32">
					<dim>1</dim>
					<dim>1</dim>
					<dim>1</dim>
					<dim>1</dim>
				</port>
			</output>
		</layer>
		<layer id="143" name="Constant_14037" type="Const" version="opset1">
			<data element_type="f32" shape="1, 1, 1, 1" offset="4764" size="4" />
			<output>
				<port id="0" precision="FP32">
					<dim>1</dim>
					<dim>1</dim>
					<dim>1</dim>
					<dim>1</dim>
				</port>
			</output>
		</layer>
		<layer id="144" name="Constant_14038" type="Const" version="opset1">
			<data element_type="f32" shape="1, 1, 1, 1" offset="4760" size="4" />
			<output>
				<port id="0" precision="FP32">
					<dim>1</dim>
					<dim>1</dim>
					<dim>1</dim>
					<dim>1</dim>
				</port>
			</output>
		</layer>
		<layer id="145" name="Constant_14039" type="Const" version="opset1">
			<data element_type="f32" shape="1, 1, 1, 1" offset="4764" size="4" />
			<output>
				<port id="0" precision="FP32">
					<dim>1</dim>
					<dim>1</dim>
					<dim>1</dim>
					<dim>1</dim>
				</port>
			</output>
		</layer>
		<layer id="146" name="/features/features.2/features.2.0/block/block.0/block.0.2/Mul_output_0_DequantizeLinear" type="FakeQuantize" version="opset1">
			<data levels="256" auto_broadcast="numpy" />
			<input>
				<port id="0" precision="FP32">
					<dim>1</dim>
					<dim>96</dim>
					<dim>112</dim>
					<dim>112</dim>
				</port>
				<port id="1" precision="FP32">
					<dim>1</dim>
					<dim>1</dim>
					<dim>1</dim>
					<dim>1</dim>
				</port>
				<port id="2" precision="FP32">
					<dim>1</dim>
					<dim>1</dim>
					<dim>1</dim>
					<dim>1</dim>
				</port>
				<port id="3" precision="FP32">
					<dim>1</dim>
					<dim>1</dim>
					<dim>1</dim>
					<dim>1</dim>
				</port>
				<port id="4" precision="FP32">
					<dim>1</dim>
					<dim>1</dim>
					<dim>1</dim>
					<dim>1</dim>
				</port>
			</input>
			<output>
				<port id="5" precision="FP32" names="/features/features.2/features.2.0/block/block.0/block.0.2/Mul_output_0_DequantizeLinear_Output">
					<dim>1</dim>
					<dim>96</dim>
					<dim>112</dim>
					<dim>112</dim>
				</port>
			</output>
		</layer>
		<layer id="147" name="onnx::Conv_662_quantized" type="Const" version="opset1">
			<data element_type="i8" shape="96, 1, 3, 3" offset="4768" size="864" />
			<output>
				<port id="0" precision="I8" names="onnx::Conv_662_quantized">
					<dim>96</dim>
					<dim>1</dim>
					<dim>3</dim>
					<dim>3</dim>
				</port>
			</output>
		</layer>
		<layer id="148" name="Convert_1282" type="Convert" version="opset1">
			<data destination_type="f32" />
			<input>
				<port id="0" precision="I8">
					<dim>96</dim>
					<dim>1</dim>
					<dim>3</dim>
					<dim>3</dim>
				</port>
			</input>
			<output>
				<port id="1" precision="FP32">
					<dim>96</dim>
					<dim>1</dim>
					<dim>3</dim>
					<dim>3</dim>
				</port>
			</output>
		</layer>
		<layer id="149" name="Constant_14040" type="Const" version="opset1">
			<data element_type="f32" shape="1, 1, 1, 1" offset="5632" size="4" />
			<output>
				<port id="0" precision="FP32">
					<dim>1</dim>
					<dim>1</dim>
					<dim>1</dim>
					<dim>1</dim>
				</port>
			</output>
		</layer>
		<layer id="150" name="onnx::Conv_662_DequantizeLinear" type="Multiply" version="opset1">
			<data auto_broadcast="numpy" />
			<input>
				<port id="0" precision="FP32">
					<dim>96</dim>
					<dim>1</dim>
					<dim>3</dim>
					<dim>3</dim>
				</port>
				<port id="1" precision="FP32">
					<dim>1</dim>
					<dim>1</dim>
					<dim>1</dim>
					<dim>1</dim>
				</port>
			</input>
			<output>
				<port id="2" precision="FP32" names="onnx::Conv_662_DequantizeLinear_Output">
					<dim>96</dim>
					<dim>1</dim>
					<dim>3</dim>
					<dim>3</dim>
				</port>
			</output>
		</layer>
		<layer id="151" name="Constant_15679" type="Const" version="opset1">
			<data element_type="i64" shape="5" offset="5636" size="40" />
			<output>
				<port id="0" precision="I64">
					<dim>5</dim>
				</port>
			</output>
		</layer>
		<layer id="152" name="Reshape_2051" type="Reshape" version="opset1">
			<data special_zero="true" />
			<input>
				<port id="0" precision="FP32">
					<dim>96</dim>
					<dim>1</dim>
					<dim>3</dim>
					<dim>3</dim>
				</port>
				<port id="1" precision="I64">
					<dim>5</dim>
				</port>
			</input>
			<output>
				<port id="2" precision="FP32">
					<dim>96</dim>
					<dim>1</dim>
					<dim>1</dim>
					<dim>3</dim>
					<dim>3</dim>
				</port>
			</output>
		</layer>
		<layer id="153" name="/features/features.2/features.2.0/block/block.1/block.1.0/Conv/WithoutBiases" type="GroupConvolution" version="opset1">
			<data strides="2, 2" pads_begin="1, 1" pads_end="1, 1" dilations="1, 1" auto_pad="explicit" />
			<input>
				<port id="0" precision="FP32">
					<dim>1</dim>
					<dim>96</dim>
					<dim>112</dim>
					<dim>112</dim>
				</port>
				<port id="1" precision="FP32">
					<dim>96</dim>
					<dim>1</dim>
					<dim>1</dim>
					<dim>3</dim>
					<dim>3</dim>
				</port>
			</input>
			<output>
				<port id="2" precision="FP32">
					<dim>1</dim>
					<dim>96</dim>
					<dim>56</dim>
					<dim>56</dim>
				</port>
			</output>
		</layer>
		<layer id="154" name="Reshape_2101" type="Const" version="opset1">
			<data element_type="f32" shape="1, 96, 1, 1" offset="5676" size="384" />
			<output>
				<port id="0" precision="FP32">
					<dim>1</dim>
					<dim>96</dim>
					<dim>1</dim>
					<dim>1</dim>
				</port>
			</output>
		</layer>
		<layer id="155" name="/features/features.2/features.2.0/block/block.1/block.1.0/Conv" type="Add" version="opset1">
			<data auto_broadcast="numpy" />
			<input>
				<port id="0" precision="FP32">
					<dim>1</dim>
					<dim>96</dim>
					<dim>56</dim>
					<dim>56</dim>
				</port>
				<port id="1" precision="FP32">
					<dim>1</dim>
					<dim>96</dim>
					<dim>1</dim>
					<dim>1</dim>
				</port>
			</input>
			<output>
				<port id="2" precision="FP32" names="/features/features.2/features.2.0/block/block.1/block.1.0/Conv_output_0">
					<dim>1</dim>
					<dim>96</dim>
					<dim>56</dim>
					<dim>56</dim>
				</port>
			</output>
		</layer>
		<layer id="156" name="Constant_14041" type="Const" version="opset1">
			<data element_type="f32" shape="1, 1, 1, 1" offset="6060" size="4" />
			<output>
				<port id="0" precision="FP32">
					<dim>1</dim>
					<dim>1</dim>
					<dim>1</dim>
					<dim>1</dim>
				</port>
			</output>
		</layer>
		<layer id="157" name="Constant_14042" type="Const" version="opset1">
			<data element_type="f32" shape="1, 1, 1, 1" offset="6064" size="4" />
			<output>
				<port id="0" precision="FP32">
					<dim>1</dim>
					<dim>1</dim>
					<dim>1</dim>
					<dim>1</dim>
				</port>
			</output>
		</layer>
		<layer id="158" name="Constant_14043" type="Const" version="opset1">
			<data element_type="f32" shape="1, 1, 1, 1" offset="6060" size="4" />
			<output>
				<port id="0" precision="FP32">
					<dim>1</dim>
					<dim>1</dim>
					<dim>1</dim>
					<dim>1</dim>
				</port>
			</output>
		</layer>
		<layer id="159" name="Constant_14044" type="Const" version="opset1">
			<data element_type="f32" shape="1, 1, 1, 1" offset="6064" size="4" />
			<output>
				<port id="0" precision="FP32">
					<dim>1</dim>
					<dim>1</dim>
					<dim>1</dim>
					<dim>1</dim>
				</port>
			</output>
		</layer>
		<layer id="160" name="/features/features.2/features.2.0/block/block.1/block.1.0/Conv_output_0_DequantizeLinear" type="FakeQuantize" version="opset1">
			<data levels="256" auto_broadcast="numpy" />
			<input>
				<port id="0" precision="FP32">
					<dim>1</dim>
					<dim>96</dim>
					<dim>56</dim>
					<dim>56</dim>
				</port>
				<port id="1" precision="FP32">
					<dim>1</dim>
					<dim>1</dim>
					<dim>1</dim>
					<dim>1</dim>
				</port>
				<port id="2" precision="FP32">
					<dim>1</dim>
					<dim>1</dim>
					<dim>1</dim>
					<dim>1</dim>
				</port>
				<port id="3" precision="FP32">
					<dim>1</dim>
					<dim>1</dim>
					<dim>1</dim>
					<dim>1</dim>
				</port>
				<port id="4" precision="FP32">
					<dim>1</dim>
					<dim>1</dim>
					<dim>1</dim>
					<dim>1</dim>
				</port>
			</input>
			<output>
				<port id="5" precision="FP32" names="/features/features.2/features.2.0/block/block.1/block.1.0/Conv_output_0_DequantizeLinear_Output">
					<dim>1</dim>
					<dim>96</dim>
					<dim>56</dim>
					<dim>56</dim>
				</port>
			</output>
		</layer>
		<layer id="161" name="/features/features.2/features.2.0/block/block.1/block.1.2/Sigmoid" type="Sigmoid" version="opset1">
			<input>
				<port id="0" precision="FP32">
					<dim>1</dim>
					<dim>96</dim>
					<dim>56</dim>
					<dim>56</dim>
				</port>
			</input>
			<output>
				<port id="1" precision="FP32" names="/features/features.2/features.2.0/block/block.1/block.1.2/Sigmoid_output_0">
					<dim>1</dim>
					<dim>96</dim>
					<dim>56</dim>
					<dim>56</dim>
				</port>
			</output>
		</layer>
		<layer id="162" name="Constant_14045" type="Const" version="opset1">
			<data element_type="f32" shape="1, 1, 1, 1" offset="1012" size="4" />
			<output>
				<port id="0" precision="FP32">
					<dim>1</dim>
					<dim>1</dim>
					<dim>1</dim>
					<dim>1</dim>
				</port>
			</output>
		</layer>
		<layer id="163" name="Constant_14046" type="Const" version="opset1">
			<data element_type="f32" shape="1, 1, 1, 1" offset="1016" size="4" />
			<output>
				<port id="0" precision="FP32">
					<dim>1</dim>
					<dim>1</dim>
					<dim>1</dim>
					<dim>1</dim>
				</port>
			</output>
		</layer>
		<layer id="164" name="Constant_14047" type="Const" version="opset1">
			<data element_type="f32" shape="1, 1, 1, 1" offset="1012" size="4" />
			<output>
				<port id="0" precision="FP32">
					<dim>1</dim>
					<dim>1</dim>
					<dim>1</dim>
					<dim>1</dim>
				</port>
			</output>
		</layer>
		<layer id="165" name="Constant_14048" type="Const" version="opset1">
			<data element_type="f32" shape="1, 1, 1, 1" offset="1016" size="4" />
			<output>
				<port id="0" precision="FP32">
					<dim>1</dim>
					<dim>1</dim>
					<dim>1</dim>
					<dim>1</dim>
				</port>
			</output>
		</layer>
		<layer id="166" name="/features/features.2/features.2.0/block/block.1/block.1.2/Sigmoid_output_0_DequantizeLinear" type="FakeQuantize" version="opset1">
			<data levels="256" auto_broadcast="numpy" />
			<input>
				<port id="0" precision="FP32">
					<dim>1</dim>
					<dim>96</dim>
					<dim>56</dim>
					<dim>56</dim>
				</port>
				<port id="1" precision="FP32">
					<dim>1</dim>
					<dim>1</dim>
					<dim>1</dim>
					<dim>1</dim>
				</port>
				<port id="2" precision="FP32">
					<dim>1</dim>
					<dim>1</dim>
					<dim>1</dim>
					<dim>1</dim>
				</port>
				<port id="3" precision="FP32">
					<dim>1</dim>
					<dim>1</dim>
					<dim>1</dim>
					<dim>1</dim>
				</port>
				<port id="4" precision="FP32">
					<dim>1</dim>
					<dim>1</dim>
					<dim>1</dim>
					<dim>1</dim>
				</port>
			</input>
			<output>
				<port id="5" precision="FP32" names="/features/features.2/features.2.0/block/block.1/block.1.2/Sigmoid_output_0_DequantizeLinear_Output">
					<dim>1</dim>
					<dim>96</dim>
					<dim>56</dim>
					<dim>56</dim>
				</port>
			</output>
		</layer>
		<layer id="167" name="/features/features.2/features.2.0/block/block.1/block.1.2/Mul" type="Multiply" version="opset1">
			<data auto_broadcast="numpy" />
			<input>
				<port id="0" precision="FP32">
					<dim>1</dim>
					<dim>96</dim>
					<dim>56</dim>
					<dim>56</dim>
				</port>
				<port id="1" precision="FP32">
					<dim>1</dim>
					<dim>96</dim>
					<dim>56</dim>
					<dim>56</dim>
				</port>
			</input>
			<output>
				<port id="2" precision="FP32" names="/features/features.2/features.2.0/block/block.1/block.1.2/Mul_output_0">
					<dim>1</dim>
					<dim>96</dim>
					<dim>56</dim>
					<dim>56</dim>
				</port>
			</output>
		</layer>
		<layer id="168" name="Constant_14049" type="Const" version="opset1">
			<data element_type="f32" shape="1, 1, 1, 1" offset="6068" size="4" />
			<output>
				<port id="0" precision="FP32">
					<dim>1</dim>
					<dim>1</dim>
					<dim>1</dim>
					<dim>1</dim>
				</port>
			</output>
		</layer>
		<layer id="169" name="Constant_14050" type="Const" version="opset1">
			<data element_type="f32" shape="1, 1, 1, 1" offset="6072" size="4" />
			<output>
				<port id="0" precision="FP32">
					<dim>1</dim>
					<dim>1</dim>
					<dim>1</dim>
					<dim>1</dim>
				</port>
			</output>
		</layer>
		<layer id="170" name="Constant_14051" type="Const" version="opset1">
			<data element_type="f32" shape="1, 1, 1, 1" offset="6068" size="4" />
			<output>
				<port id="0" precision="FP32">
					<dim>1</dim>
					<dim>1</dim>
					<dim>1</dim>
					<dim>1</dim>
				</port>
			</output>
		</layer>
		<layer id="171" name="Constant_14052" type="Const" version="opset1">
			<data element_type="f32" shape="1, 1, 1, 1" offset="6072" size="4" />
			<output>
				<port id="0" precision="FP32">
					<dim>1</dim>
					<dim>1</dim>
					<dim>1</dim>
					<dim>1</dim>
				</port>
			</output>
		</layer>
		<layer id="172" name="/features/features.2/features.2.0/block/block.1/block.1.2/Mul_output_0_DequantizeLinear" type="FakeQuantize" version="opset1">
			<data levels="256" auto_broadcast="numpy" />
			<input>
				<port id="0" precision="FP32">
					<dim>1</dim>
					<dim>96</dim>
					<dim>56</dim>
					<dim>56</dim>
				</port>
				<port id="1" precision="FP32">
					<dim>1</dim>
					<dim>1</dim>
					<dim>1</dim>
					<dim>1</dim>
				</port>
				<port id="2" precision="FP32">
					<dim>1</dim>
					<dim>1</dim>
					<dim>1</dim>
					<dim>1</dim>
				</port>
				<port id="3" precision="FP32">
					<dim>1</dim>
					<dim>1</dim>
					<dim>1</dim>
					<dim>1</dim>
				</port>
				<port id="4" precision="FP32">
					<dim>1</dim>
					<dim>1</dim>
					<dim>1</dim>
					<dim>1</dim>
				</port>
			</input>
			<output>
				<port id="5" precision="FP32" names="/features/features.2/features.2.0/block/block.1/block.1.2/Mul_output_0_DequantizeLinear_Output">
					<dim>1</dim>
					<dim>96</dim>
					<dim>56</dim>
					<dim>56</dim>
				</port>
			</output>
		</layer>
		<layer id="173" name="Range_2156" type="Const" version="opset1">
			<data element_type="i64" shape="2" offset="1504" size="16" />
			<output>
				<port id="0" precision="I64">
					<dim>2</dim>
				</port>
			</output>
		</layer>
		<layer id="174" name="/features/features.2/features.2.0/block/block.2/avgpool/GlobalAveragePool" type="ReduceMean" version="opset1">
			<data keep_dims="true" />
			<input>
				<port id="0" precision="FP32">
					<dim>1</dim>
					<dim>96</dim>
					<dim>56</dim>
					<dim>56</dim>
				</port>
				<port id="1" precision="I64">
					<dim>2</dim>
				</port>
			</input>
			<output>
				<port id="2" precision="FP32" names="/features/features.2/features.2.0/block/block.2/avgpool/GlobalAveragePool_output_0">
					<dim>1</dim>
					<dim>96</dim>
					<dim>1</dim>
					<dim>1</dim>
				</port>
			</output>
		</layer>
		<layer id="175" name="Constant_14053" type="Const" version="opset1">
			<data element_type="f32" shape="1, 1, 1, 1" offset="6076" size="4" />
			<output>
				<port id="0" precision="FP32">
					<dim>1</dim>
					<dim>1</dim>
					<dim>1</dim>
					<dim>1</dim>
				</port>
			</output>
		</layer>
		<layer id="176" name="Constant_14054" type="Const" version="opset1">
			<data element_type="f32" shape="1, 1, 1, 1" offset="6080" size="4" />
			<output>
				<port id="0" precision="FP32">
					<dim>1</dim>
					<dim>1</dim>
					<dim>1</dim>
					<dim>1</dim>
				</port>
			</output>
		</layer>
		<layer id="177" name="Constant_14055" type="Const" version="opset1">
			<data element_type="f32" shape="1, 1, 1, 1" offset="6076" size="4" />
			<output>
				<port id="0" precision="FP32">
					<dim>1</dim>
					<dim>1</dim>
					<dim>1</dim>
					<dim>1</dim>
				</port>
			</output>
		</layer>
		<layer id="178" name="Constant_14056" type="Const" version="opset1">
			<data element_type="f32" shape="1, 1, 1, 1" offset="6080" size="4" />
			<output>
				<port id="0" precision="FP32">
					<dim>1</dim>
					<dim>1</dim>
					<dim>1</dim>
					<dim>1</dim>
				</port>
			</output>
		</layer>
		<layer id="179" name="/features/features.2/features.2.0/block/block.2/avgpool/GlobalAveragePool_output_0_DequantizeLinear" type="FakeQuantize" version="opset1">
			<data levels="256" auto_broadcast="numpy" />
			<input>
				<port id="0" precision="FP32">
					<dim>1</dim>
					<dim>96</dim>
					<dim>1</dim>
					<dim>1</dim>
				</port>
				<port id="1" precision="FP32">
					<dim>1</dim>
					<dim>1</dim>
					<dim>1</dim>
					<dim>1</dim>
				</port>
				<port id="2" precision="FP32">
					<dim>1</dim>
					<dim>1</dim>
					<dim>1</dim>
					<dim>1</dim>
				</port>
				<port id="3" precision="FP32">
					<dim>1</dim>
					<dim>1</dim>
					<dim>1</dim>
					<dim>1</dim>
				</port>
				<port id="4" precision="FP32">
					<dim>1</dim>
					<dim>1</dim>
					<dim>1</dim>
					<dim>1</dim>
				</port>
			</input>
			<output>
				<port id="5" precision="FP32" names="/features/features.2/features.2.0/block/block.2/avgpool/GlobalAveragePool_output_0_DequantizeLinear_Output">
					<dim>1</dim>
					<dim>96</dim>
					<dim>1</dim>
					<dim>1</dim>
				</port>
			</output>
		</layer>
		<layer id="180" name="features.2.0.block.2.fc1.weight_quantized" type="Const" version="opset1">
			<data element_type="i8" shape="4, 96, 1, 1" offset="6084" size="384" />
			<output>
				<port id="0" precision="I8" names="features.2.0.block.2.fc1.weight_quantized">
					<dim>4</dim>
					<dim>96</dim>
					<dim>1</dim>
					<dim>1</dim>
				</port>
			</output>
		</layer>
		<layer id="181" name="Convert_1003" type="Convert" version="opset1">
			<data destination_type="f32" />
			<input>
				<port id="0" precision="I8">
					<dim>4</dim>
					<dim>96</dim>
					<dim>1</dim>
					<dim>1</dim>
				</port>
			</input>
			<output>
				<port id="1" precision="FP32">
					<dim>4</dim>
					<dim>96</dim>
					<dim>1</dim>
					<dim>1</dim>
				</port>
			</output>
		</layer>
		<layer id="182" name="Constant_14057" type="Const" version="opset1">
			<data element_type="f32" shape="1, 1, 1, 1" offset="6468" size="4" />
			<output>
				<port id="0" precision="FP32">
					<dim>1</dim>
					<dim>1</dim>
					<dim>1</dim>
					<dim>1</dim>
				</port>
			</output>
		</layer>
		<layer id="183" name="features.2.0.block.2.fc1.weight_DequantizeLinear" type="Multiply" version="opset1">
			<data auto_broadcast="numpy" />
			<input>
				<port id="0" precision="FP32">
					<dim>4</dim>
					<dim>96</dim>
					<dim>1</dim>
					<dim>1</dim>
				</port>
				<port id="1" precision="FP32">
					<dim>1</dim>
					<dim>1</dim>
					<dim>1</dim>
					<dim>1</dim>
				</port>
			</input>
			<output>
				<port id="2" precision="FP32" names="features.2.0.block.2.fc1.weight_DequantizeLinear_Output">
					<dim>4</dim>
					<dim>96</dim>
					<dim>1</dim>
					<dim>1</dim>
				</port>
			</output>
		</layer>
		<layer id="184" name="/features/features.2/features.2.0/block/block.2/fc1/Conv/WithoutBiases" type="Convolution" version="opset1">
			<data strides="1, 1" dilations="1, 1" pads_begin="0, 0" pads_end="0, 0" auto_pad="explicit" />
			<input>
				<port id="0" precision="FP32">
					<dim>1</dim>
					<dim>96</dim>
					<dim>1</dim>
					<dim>1</dim>
				</port>
				<port id="1" precision="FP32">
					<dim>4</dim>
					<dim>96</dim>
					<dim>1</dim>
					<dim>1</dim>
				</port>
			</input>
			<output>
				<port id="2" precision="FP32">
					<dim>1</dim>
					<dim>4</dim>
					<dim>1</dim>
					<dim>1</dim>
				</port>
			</output>
		</layer>
		<layer id="185" name="Reshape_2186" type="Const" version="opset1">
			<data element_type="f32" shape="1, 4, 1, 1" offset="6472" size="16" />
			<output>
				<port id="0" precision="FP32">
					<dim>1</dim>
					<dim>4</dim>
					<dim>1</dim>
					<dim>1</dim>
				</port>
			</output>
		</layer>
		<layer id="186" name="/features/features.2/features.2.0/block/block.2/fc1/Conv" type="Add" version="opset1">
			<data auto_broadcast="numpy" />
			<input>
				<port id="0" precision="FP32">
					<dim>1</dim>
					<dim>4</dim>
					<dim>1</dim>
					<dim>1</dim>
				</port>
				<port id="1" precision="FP32">
					<dim>1</dim>
					<dim>4</dim>
					<dim>1</dim>
					<dim>1</dim>
				</port>
			</input>
			<output>
				<port id="2" precision="FP32" names="/features/features.2/features.2.0/block/block.2/fc1/Conv_output_0">
					<dim>1</dim>
					<dim>4</dim>
					<dim>1</dim>
					<dim>1</dim>
				</port>
			</output>
		</layer>
		<layer id="187" name="Constant_14058" type="Const" version="opset1">
			<data element_type="f32" shape="1, 1, 1, 1" offset="6488" size="4" />
			<output>
				<port id="0" precision="FP32">
					<dim>1</dim>
					<dim>1</dim>
					<dim>1</dim>
					<dim>1</dim>
				</port>
			</output>
		</layer>
		<layer id="188" name="Constant_14059" type="Const" version="opset1">
			<data element_type="f32" shape="1, 1, 1, 1" offset="6492" size="4" />
			<output>
				<port id="0" precision="FP32">
					<dim>1</dim>
					<dim>1</dim>
					<dim>1</dim>
					<dim>1</dim>
				</port>
			</output>
		</layer>
		<layer id="189" name="Constant_14060" type="Const" version="opset1">
			<data element_type="f32" shape="1, 1, 1, 1" offset="6488" size="4" />
			<output>
				<port id="0" precision="FP32">
					<dim>1</dim>
					<dim>1</dim>
					<dim>1</dim>
					<dim>1</dim>
				</port>
			</output>
		</layer>
		<layer id="190" name="Constant_14061" type="Const" version="opset1">
			<data element_type="f32" shape="1, 1, 1, 1" offset="6492" size="4" />
			<output>
				<port id="0" precision="FP32">
					<dim>1</dim>
					<dim>1</dim>
					<dim>1</dim>
					<dim>1</dim>
				</port>
			</output>
		</layer>
		<layer id="191" name="/features/features.2/features.2.0/block/block.2/fc1/Conv_output_0_DequantizeLinear" type="FakeQuantize" version="opset1">
			<data levels="256" auto_broadcast="numpy" />
			<input>
				<port id="0" precision="FP32">
					<dim>1</dim>
					<dim>4</dim>
					<dim>1</dim>
					<dim>1</dim>
				</port>
				<port id="1" precision="FP32">
					<dim>1</dim>
					<dim>1</dim>
					<dim>1</dim>
					<dim>1</dim>
				</port>
				<port id="2" precision="FP32">
					<dim>1</dim>
					<dim>1</dim>
					<dim>1</dim>
					<dim>1</dim>
				</port>
				<port id="3" precision="FP32">
					<dim>1</dim>
					<dim>1</dim>
					<dim>1</dim>
					<dim>1</dim>
				</port>
				<port id="4" precision="FP32">
					<dim>1</dim>
					<dim>1</dim>
					<dim>1</dim>
					<dim>1</dim>
				</port>
			</input>
			<output>
				<port id="5" precision="FP32" names="/features/features.2/features.2.0/block/block.2/fc1/Conv_output_0_DequantizeLinear_Output">
					<dim>1</dim>
					<dim>4</dim>
					<dim>1</dim>
					<dim>1</dim>
				</port>
			</output>
		</layer>
		<layer id="192" name="/features/features.2/features.2.0/block/block.2/activation/Sigmoid" type="Sigmoid" version="opset1">
			<input>
				<port id="0" precision="FP32">
					<dim>1</dim>
					<dim>4</dim>
					<dim>1</dim>
					<dim>1</dim>
				</port>
			</input>
			<output>
				<port id="1" precision="FP32" names="/features/features.2/features.2.0/block/block.2/activation/Sigmoid_output_0">
					<dim>1</dim>
					<dim>4</dim>
					<dim>1</dim>
					<dim>1</dim>
				</port>
			</output>
		</layer>
		<layer id="193" name="Constant_14062" type="Const" version="opset1">
			<data element_type="f32" shape="1, 1, 1, 1" offset="1012" size="4" />
			<output>
				<port id="0" precision="FP32">
					<dim>1</dim>
					<dim>1</dim>
					<dim>1</dim>
					<dim>1</dim>
				</port>
			</output>
		</layer>
		<layer id="194" name="Constant_14063" type="Const" version="opset1">
			<data element_type="f32" shape="1, 1, 1, 1" offset="6496" size="4" />
			<output>
				<port id="0" precision="FP32">
					<dim>1</dim>
					<dim>1</dim>
					<dim>1</dim>
					<dim>1</dim>
				</port>
			</output>
		</layer>
		<layer id="195" name="Constant_14064" type="Const" version="opset1">
			<data element_type="f32" shape="1, 1, 1, 1" offset="1012" size="4" />
			<output>
				<port id="0" precision="FP32">
					<dim>1</dim>
					<dim>1</dim>
					<dim>1</dim>
					<dim>1</dim>
				</port>
			</output>
		</layer>
		<layer id="196" name="Constant_14065" type="Const" version="opset1">
			<data element_type="f32" shape="1, 1, 1, 1" offset="6496" size="4" />
			<output>
				<port id="0" precision="FP32">
					<dim>1</dim>
					<dim>1</dim>
					<dim>1</dim>
					<dim>1</dim>
				</port>
			</output>
		</layer>
		<layer id="197" name="/features/features.2/features.2.0/block/block.2/activation/Sigmoid_output_0_DequantizeLinear" type="FakeQuantize" version="opset1">
			<data levels="256" auto_broadcast="numpy" />
			<input>
				<port id="0" precision="FP32">
					<dim>1</dim>
					<dim>4</dim>
					<dim>1</dim>
					<dim>1</dim>
				</port>
				<port id="1" precision="FP32">
					<dim>1</dim>
					<dim>1</dim>
					<dim>1</dim>
					<dim>1</dim>
				</port>
				<port id="2" precision="FP32">
					<dim>1</dim>
					<dim>1</dim>
					<dim>1</dim>
					<dim>1</dim>
				</port>
				<port id="3" precision="FP32">
					<dim>1</dim>
					<dim>1</dim>
					<dim>1</dim>
					<dim>1</dim>
				</port>
				<port id="4" precision="FP32">
					<dim>1</dim>
					<dim>1</dim>
					<dim>1</dim>
					<dim>1</dim>
				</port>
			</input>
			<output>
				<port id="5" precision="FP32" names="/features/features.2/features.2.0/block/block.2/activation/Sigmoid_output_0_DequantizeLinear_Output">
					<dim>1</dim>
					<dim>4</dim>
					<dim>1</dim>
					<dim>1</dim>
				</port>
			</output>
		</layer>
		<layer id="198" name="/features/features.2/features.2.0/block/block.2/activation/Mul" type="Multiply" version="opset1">
			<data auto_broadcast="numpy" />
			<input>
				<port id="0" precision="FP32">
					<dim>1</dim>
					<dim>4</dim>
					<dim>1</dim>
					<dim>1</dim>
				</port>
				<port id="1" precision="FP32">
					<dim>1</dim>
					<dim>4</dim>
					<dim>1</dim>
					<dim>1</dim>
				</port>
			</input>
			<output>
				<port id="2" precision="FP32" names="/features/features.2/features.2.0/block/block.2/activation/Mul_output_0">
					<dim>1</dim>
					<dim>4</dim>
					<dim>1</dim>
					<dim>1</dim>
				</port>
			</output>
		</layer>
		<layer id="199" name="Constant_14066" type="Const" version="opset1">
			<data element_type="f32" shape="1, 1, 1, 1" offset="6500" size="4" />
			<output>
				<port id="0" precision="FP32">
					<dim>1</dim>
					<dim>1</dim>
					<dim>1</dim>
					<dim>1</dim>
				</port>
			</output>
		</layer>
		<layer id="200" name="Constant_14067" type="Const" version="opset1">
			<data element_type="f32" shape="1, 1, 1, 1" offset="6504" size="4" />
			<output>
				<port id="0" precision="FP32">
					<dim>1</dim>
					<dim>1</dim>
					<dim>1</dim>
					<dim>1</dim>
				</port>
			</output>
		</layer>
		<layer id="201" name="Constant_14068" type="Const" version="opset1">
			<data element_type="f32" shape="1, 1, 1, 1" offset="6500" size="4" />
			<output>
				<port id="0" precision="FP32">
					<dim>1</dim>
					<dim>1</dim>
					<dim>1</dim>
					<dim>1</dim>
				</port>
			</output>
		</layer>
		<layer id="202" name="Constant_14069" type="Const" version="opset1">
			<data element_type="f32" shape="1, 1, 1, 1" offset="6504" size="4" />
			<output>
				<port id="0" precision="FP32">
					<dim>1</dim>
					<dim>1</dim>
					<dim>1</dim>
					<dim>1</dim>
				</port>
			</output>
		</layer>
		<layer id="203" name="/features/features.2/features.2.0/block/block.2/activation/Mul_output_0_DequantizeLinear" type="FakeQuantize" version="opset1">
			<data levels="256" auto_broadcast="numpy" />
			<input>
				<port id="0" precision="FP32">
					<dim>1</dim>
					<dim>4</dim>
					<dim>1</dim>
					<dim>1</dim>
				</port>
				<port id="1" precision="FP32">
					<dim>1</dim>
					<dim>1</dim>
					<dim>1</dim>
					<dim>1</dim>
				</port>
				<port id="2" precision="FP32">
					<dim>1</dim>
					<dim>1</dim>
					<dim>1</dim>
					<dim>1</dim>
				</port>
				<port id="3" precision="FP32">
					<dim>1</dim>
					<dim>1</dim>
					<dim>1</dim>
					<dim>1</dim>
				</port>
				<port id="4" precision="FP32">
					<dim>1</dim>
					<dim>1</dim>
					<dim>1</dim>
					<dim>1</dim>
				</port>
			</input>
			<output>
				<port id="5" precision="FP32" names="/features/features.2/features.2.0/block/block.2/activation/Mul_output_0_DequantizeLinear_Output">
					<dim>1</dim>
					<dim>4</dim>
					<dim>1</dim>
					<dim>1</dim>
				</port>
			</output>
		</layer>
		<layer id="204" name="features.2.0.block.2.fc2.weight_quantized" type="Const" version="opset1">
			<data element_type="i8" shape="96, 4, 1, 1" offset="6508" size="384" />
			<output>
				<port id="0" precision="I8" names="features.2.0.block.2.fc2.weight_quantized">
					<dim>96</dim>
					<dim>4</dim>
					<dim>1</dim>
					<dim>1</dim>
				</port>
			</output>
		</layer>
		<layer id="205" name="Convert_1011" type="Convert" version="opset1">
			<data destination_type="f32" />
			<input>
				<port id="0" precision="I8">
					<dim>96</dim>
					<dim>4</dim>
					<dim>1</dim>
					<dim>1</dim>
				</port>
			</input>
			<output>
				<port id="1" precision="FP32">
					<dim>96</dim>
					<dim>4</dim>
					<dim>1</dim>
					<dim>1</dim>
				</port>
			</output>
		</layer>
		<layer id="206" name="Constant_14070" type="Const" version="opset1">
			<data element_type="f32" shape="1, 1, 1, 1" offset="6892" size="4" />
			<output>
				<port id="0" precision="FP32">
					<dim>1</dim>
					<dim>1</dim>
					<dim>1</dim>
					<dim>1</dim>
				</port>
			</output>
		</layer>
		<layer id="207" name="features.2.0.block.2.fc2.weight_DequantizeLinear" type="Multiply" version="opset1">
			<data auto_broadcast="numpy" />
			<input>
				<port id="0" precision="FP32">
					<dim>96</dim>
					<dim>4</dim>
					<dim>1</dim>
					<dim>1</dim>
				</port>
				<port id="1" precision="FP32">
					<dim>1</dim>
					<dim>1</dim>
					<dim>1</dim>
					<dim>1</dim>
				</port>
			</input>
			<output>
				<port id="2" precision="FP32" names="features.2.0.block.2.fc2.weight_DequantizeLinear_Output">
					<dim>96</dim>
					<dim>4</dim>
					<dim>1</dim>
					<dim>1</dim>
				</port>
			</output>
		</layer>
		<layer id="208" name="/features/features.2/features.2.0/block/block.2/fc2/Conv/WithoutBiases" type="Convolution" version="opset1">
			<data strides="1, 1" dilations="1, 1" pads_begin="0, 0" pads_end="0, 0" auto_pad="explicit" />
			<input>
				<port id="0" precision="FP32">
					<dim>1</dim>
					<dim>4</dim>
					<dim>1</dim>
					<dim>1</dim>
				</port>
				<port id="1" precision="FP32">
					<dim>96</dim>
					<dim>4</dim>
					<dim>1</dim>
					<dim>1</dim>
				</port>
			</input>
			<output>
				<port id="2" precision="FP32">
					<dim>1</dim>
					<dim>96</dim>
					<dim>1</dim>
					<dim>1</dim>
				</port>
			</output>
		</layer>
		<layer id="209" name="Reshape_2246" type="Const" version="opset1">
			<data element_type="f32" shape="1, 96, 1, 1" offset="6896" size="384" />
			<output>
				<port id="0" precision="FP32">
					<dim>1</dim>
					<dim>96</dim>
					<dim>1</dim>
					<dim>1</dim>
				</port>
			</output>
		</layer>
		<layer id="210" name="/features/features.2/features.2.0/block/block.2/fc2/Conv" type="Add" version="opset1">
			<data auto_broadcast="numpy" />
			<input>
				<port id="0" precision="FP32">
					<dim>1</dim>
					<dim>96</dim>
					<dim>1</dim>
					<dim>1</dim>
				</port>
				<port id="1" precision="FP32">
					<dim>1</dim>
					<dim>96</dim>
					<dim>1</dim>
					<dim>1</dim>
				</port>
			</input>
			<output>
				<port id="2" precision="FP32" names="/features/features.2/features.2.0/block/block.2/fc2/Conv_output_0">
					<dim>1</dim>
					<dim>96</dim>
					<dim>1</dim>
					<dim>1</dim>
				</port>
			</output>
		</layer>
		<layer id="211" name="Constant_14071" type="Const" version="opset1">
			<data element_type="f32" shape="1, 1, 1, 1" offset="7280" size="4" />
			<output>
				<port id="0" precision="FP32">
					<dim>1</dim>
					<dim>1</dim>
					<dim>1</dim>
					<dim>1</dim>
				</port>
			</output>
		</layer>
		<layer id="212" name="Constant_14072" type="Const" version="opset1">
			<data element_type="f32" shape="1, 1, 1, 1" offset="7284" size="4" />
			<output>
				<port id="0" precision="FP32">
					<dim>1</dim>
					<dim>1</dim>
					<dim>1</dim>
					<dim>1</dim>
				</port>
			</output>
		</layer>
		<layer id="213" name="Constant_14073" type="Const" version="opset1">
			<data element_type="f32" shape="1, 1, 1, 1" offset="7280" size="4" />
			<output>
				<port id="0" precision="FP32">
					<dim>1</dim>
					<dim>1</dim>
					<dim>1</dim>
					<dim>1</dim>
				</port>
			</output>
		</layer>
		<layer id="214" name="Constant_14074" type="Const" version="opset1">
			<data element_type="f32" shape="1, 1, 1, 1" offset="7284" size="4" />
			<output>
				<port id="0" precision="FP32">
					<dim>1</dim>
					<dim>1</dim>
					<dim>1</dim>
					<dim>1</dim>
				</port>
			</output>
		</layer>
		<layer id="215" name="/features/features.2/features.2.0/block/block.2/fc2/Conv_output_0_DequantizeLinear" type="FakeQuantize" version="opset1">
			<data levels="256" auto_broadcast="numpy" />
			<input>
				<port id="0" precision="FP32">
					<dim>1</dim>
					<dim>96</dim>
					<dim>1</dim>
					<dim>1</dim>
				</port>
				<port id="1" precision="FP32">
					<dim>1</dim>
					<dim>1</dim>
					<dim>1</dim>
					<dim>1</dim>
				</port>
				<port id="2" precision="FP32">
					<dim>1</dim>
					<dim>1</dim>
					<dim>1</dim>
					<dim>1</dim>
				</port>
				<port id="3" precision="FP32">
					<dim>1</dim>
					<dim>1</dim>
					<dim>1</dim>
					<dim>1</dim>
				</port>
				<port id="4" precision="FP32">
					<dim>1</dim>
					<dim>1</dim>
					<dim>1</dim>
					<dim>1</dim>
				</port>
			</input>
			<output>
				<port id="5" precision="FP32" names="/features/features.2/features.2.0/block/block.2/fc2/Conv_output_0_DequantizeLinear_Output">
					<dim>1</dim>
					<dim>96</dim>
					<dim>1</dim>
					<dim>1</dim>
				</port>
			</output>
		</layer>
		<layer id="216" name="/features/features.2/features.2.0/block/block.2/scale_activation/Sigmoid" type="Sigmoid" version="opset1">
			<input>
				<port id="0" precision="FP32">
					<dim>1</dim>
					<dim>96</dim>
					<dim>1</dim>
					<dim>1</dim>
				</port>
			</input>
			<output>
				<port id="1" precision="FP32" names="/features/features.2/features.2.0/block/block.2/scale_activation/Sigmoid_output_0">
					<dim>1</dim>
					<dim>96</dim>
					<dim>1</dim>
					<dim>1</dim>
				</port>
			</output>
		</layer>
		<layer id="217" name="Constant_14075" type="Const" version="opset1">
			<data element_type="f32" shape="1, 1, 1, 1" offset="1012" size="4" />
			<output>
				<port id="0" precision="FP32">
					<dim>1</dim>
					<dim>1</dim>
					<dim>1</dim>
					<dim>1</dim>
				</port>
			</output>
		</layer>
		<layer id="218" name="Constant_14076" type="Const" version="opset1">
			<data element_type="f32" shape="1, 1, 1, 1" offset="7288" size="4" />
			<output>
				<port id="0" precision="FP32">
					<dim>1</dim>
					<dim>1</dim>
					<dim>1</dim>
					<dim>1</dim>
				</port>
			</output>
		</layer>
		<layer id="219" name="Constant_14077" type="Const" version="opset1">
			<data element_type="f32" shape="1, 1, 1, 1" offset="1012" size="4" />
			<output>
				<port id="0" precision="FP32">
					<dim>1</dim>
					<dim>1</dim>
					<dim>1</dim>
					<dim>1</dim>
				</port>
			</output>
		</layer>
		<layer id="220" name="Constant_14078" type="Const" version="opset1">
			<data element_type="f32" shape="1, 1, 1, 1" offset="7288" size="4" />
			<output>
				<port id="0" precision="FP32">
					<dim>1</dim>
					<dim>1</dim>
					<dim>1</dim>
					<dim>1</dim>
				</port>
			</output>
		</layer>
		<layer id="221" name="/features/features.2/features.2.0/block/block.2/scale_activation/Sigmoid_output_0_DequantizeLinear" type="FakeQuantize" version="opset1">
			<data levels="256" auto_broadcast="numpy" />
			<input>
				<port id="0" precision="FP32">
					<dim>1</dim>
					<dim>96</dim>
					<dim>1</dim>
					<dim>1</dim>
				</port>
				<port id="1" precision="FP32">
					<dim>1</dim>
					<dim>1</dim>
					<dim>1</dim>
					<dim>1</dim>
				</port>
				<port id="2" precision="FP32">
					<dim>1</dim>
					<dim>1</dim>
					<dim>1</dim>
					<dim>1</dim>
				</port>
				<port id="3" precision="FP32">
					<dim>1</dim>
					<dim>1</dim>
					<dim>1</dim>
					<dim>1</dim>
				</port>
				<port id="4" precision="FP32">
					<dim>1</dim>
					<dim>1</dim>
					<dim>1</dim>
					<dim>1</dim>
				</port>
			</input>
			<output>
				<port id="5" precision="FP32" names="/features/features.2/features.2.0/block/block.2/scale_activation/Sigmoid_output_0_DequantizeLinear_Output">
					<dim>1</dim>
					<dim>96</dim>
					<dim>1</dim>
					<dim>1</dim>
				</port>
			</output>
		</layer>
		<layer id="222" name="/features/features.2/features.2.0/block/block.2/Mul" type="Multiply" version="opset1">
			<data auto_broadcast="numpy" />
			<input>
				<port id="0" precision="FP32">
					<dim>1</dim>
					<dim>96</dim>
					<dim>1</dim>
					<dim>1</dim>
				</port>
				<port id="1" precision="FP32">
					<dim>1</dim>
					<dim>96</dim>
					<dim>56</dim>
					<dim>56</dim>
				</port>
			</input>
			<output>
				<port id="2" precision="FP32" names="/features/features.2/features.2.0/block/block.2/Mul_output_0">
					<dim>1</dim>
					<dim>96</dim>
					<dim>56</dim>
					<dim>56</dim>
				</port>
			</output>
		</layer>
		<layer id="223" name="Constant_14079" type="Const" version="opset1">
			<data element_type="f32" shape="1, 1, 1, 1" offset="7292" size="4" />
			<output>
				<port id="0" precision="FP32">
					<dim>1</dim>
					<dim>1</dim>
					<dim>1</dim>
					<dim>1</dim>
				</port>
			</output>
		</layer>
		<layer id="224" name="Constant_14080" type="Const" version="opset1">
			<data element_type="f32" shape="1, 1, 1, 1" offset="7296" size="4" />
			<output>
				<port id="0" precision="FP32">
					<dim>1</dim>
					<dim>1</dim>
					<dim>1</dim>
					<dim>1</dim>
				</port>
			</output>
		</layer>
		<layer id="225" name="Constant_14081" type="Const" version="opset1">
			<data element_type="f32" shape="1, 1, 1, 1" offset="7292" size="4" />
			<output>
				<port id="0" precision="FP32">
					<dim>1</dim>
					<dim>1</dim>
					<dim>1</dim>
					<dim>1</dim>
				</port>
			</output>
		</layer>
		<layer id="226" name="Constant_14082" type="Const" version="opset1">
			<data element_type="f32" shape="1, 1, 1, 1" offset="7296" size="4" />
			<output>
				<port id="0" precision="FP32">
					<dim>1</dim>
					<dim>1</dim>
					<dim>1</dim>
					<dim>1</dim>
				</port>
			</output>
		</layer>
		<layer id="227" name="/features/features.2/features.2.0/block/block.2/Mul_output_0_DequantizeLinear" type="FakeQuantize" version="opset1">
			<data levels="256" auto_broadcast="numpy" />
			<input>
				<port id="0" precision="FP32">
					<dim>1</dim>
					<dim>96</dim>
					<dim>56</dim>
					<dim>56</dim>
				</port>
				<port id="1" precision="FP32">
					<dim>1</dim>
					<dim>1</dim>
					<dim>1</dim>
					<dim>1</dim>
				</port>
				<port id="2" precision="FP32">
					<dim>1</dim>
					<dim>1</dim>
					<dim>1</dim>
					<dim>1</dim>
				</port>
				<port id="3" precision="FP32">
					<dim>1</dim>
					<dim>1</dim>
					<dim>1</dim>
					<dim>1</dim>
				</port>
				<port id="4" precision="FP32">
					<dim>1</dim>
					<dim>1</dim>
					<dim>1</dim>
					<dim>1</dim>
				</port>
			</input>
			<output>
				<port id="5" precision="FP32" names="/features/features.2/features.2.0/block/block.2/Mul_output_0_DequantizeLinear_Output">
					<dim>1</dim>
					<dim>96</dim>
					<dim>56</dim>
					<dim>56</dim>
				</port>
			</output>
		</layer>
		<layer id="228" name="onnx::Conv_665_quantized" type="Const" version="opset1">
			<data element_type="i8" shape="24, 96, 1, 1" offset="7300" size="2304" />
			<output>
				<port id="0" precision="I8" names="onnx::Conv_665_quantized">
					<dim>24</dim>
					<dim>96</dim>
					<dim>1</dim>
					<dim>1</dim>
				</port>
			</output>
		</layer>
		<layer id="229" name="Convert_1290" type="Convert" version="opset1">
			<data destination_type="f32" />
			<input>
				<port id="0" precision="I8">
					<dim>24</dim>
					<dim>96</dim>
					<dim>1</dim>
					<dim>1</dim>
				</port>
			</input>
			<output>
				<port id="1" precision="FP32">
					<dim>24</dim>
					<dim>96</dim>
					<dim>1</dim>
					<dim>1</dim>
				</port>
			</output>
		</layer>
		<layer id="230" name="Constant_14083" type="Const" version="opset1">
			<data element_type="f32" shape="1, 1, 1, 1" offset="9604" size="4" />
			<output>
				<port id="0" precision="FP32">
					<dim>1</dim>
					<dim>1</dim>
					<dim>1</dim>
					<dim>1</dim>
				</port>
			</output>
		</layer>
		<layer id="231" name="onnx::Conv_665_DequantizeLinear" type="Multiply" version="opset1">
			<data auto_broadcast="numpy" />
			<input>
				<port id="0" precision="FP32">
					<dim>24</dim>
					<dim>96</dim>
					<dim>1</dim>
					<dim>1</dim>
				</port>
				<port id="1" precision="FP32">
					<dim>1</dim>
					<dim>1</dim>
					<dim>1</dim>
					<dim>1</dim>
				</port>
			</input>
			<output>
				<port id="2" precision="FP32" names="onnx::Conv_665_DequantizeLinear_Output">
					<dim>24</dim>
					<dim>96</dim>
					<dim>1</dim>
					<dim>1</dim>
				</port>
			</output>
		</layer>
		<layer id="232" name="/features/features.2/features.2.0/block/block.3/block.3.0/Conv/WithoutBiases" type="Convolution" version="opset1">
			<data strides="1, 1" dilations="1, 1" pads_begin="0, 0" pads_end="0, 0" auto_pad="explicit" />
			<input>
				<port id="0" precision="FP32">
					<dim>1</dim>
					<dim>96</dim>
					<dim>56</dim>
					<dim>56</dim>
				</port>
				<port id="1" precision="FP32">
					<dim>24</dim>
					<dim>96</dim>
					<dim>1</dim>
					<dim>1</dim>
				</port>
			</input>
			<output>
				<port id="2" precision="FP32">
					<dim>1</dim>
					<dim>24</dim>
					<dim>56</dim>
					<dim>56</dim>
				</port>
			</output>
		</layer>
		<layer id="233" name="Reshape_2306" type="Const" version="opset1">
			<data element_type="f32" shape="1, 24, 1, 1" offset="9608" size="96" />
			<output>
				<port id="0" precision="FP32">
					<dim>1</dim>
					<dim>24</dim>
					<dim>1</dim>
					<dim>1</dim>
				</port>
			</output>
		</layer>
		<layer id="234" name="/features/features.2/features.2.0/block/block.3/block.3.0/Conv" type="Add" version="opset1">
			<data auto_broadcast="numpy" />
			<input>
				<port id="0" precision="FP32">
					<dim>1</dim>
					<dim>24</dim>
					<dim>56</dim>
					<dim>56</dim>
				</port>
				<port id="1" precision="FP32">
					<dim>1</dim>
					<dim>24</dim>
					<dim>1</dim>
					<dim>1</dim>
				</port>
			</input>
			<output>
				<port id="2" precision="FP32" names="/features/features.2/features.2.0/block/block.3/block.3.0/Conv_output_0">
					<dim>1</dim>
					<dim>24</dim>
					<dim>56</dim>
					<dim>56</dim>
				</port>
			</output>
		</layer>
		<layer id="235" name="Constant_14084" type="Const" version="opset1">
			<data element_type="f32" shape="1, 1, 1, 1" offset="9704" size="4" />
			<output>
				<port id="0" precision="FP32">
					<dim>1</dim>
					<dim>1</dim>
					<dim>1</dim>
					<dim>1</dim>
				</port>
			</output>
		</layer>
		<layer id="236" name="Constant_14085" type="Const" version="opset1">
			<data element_type="f32" shape="1, 1, 1, 1" offset="9708" size="4" />
			<output>
				<port id="0" precision="FP32">
					<dim>1</dim>
					<dim>1</dim>
					<dim>1</dim>
					<dim>1</dim>
				</port>
			</output>
		</layer>
		<layer id="237" name="Constant_14086" type="Const" version="opset1">
			<data element_type="f32" shape="1, 1, 1, 1" offset="9704" size="4" />
			<output>
				<port id="0" precision="FP32">
					<dim>1</dim>
					<dim>1</dim>
					<dim>1</dim>
					<dim>1</dim>
				</port>
			</output>
		</layer>
		<layer id="238" name="Constant_14087" type="Const" version="opset1">
			<data element_type="f32" shape="1, 1, 1, 1" offset="9708" size="4" />
			<output>
				<port id="0" precision="FP32">
					<dim>1</dim>
					<dim>1</dim>
					<dim>1</dim>
					<dim>1</dim>
				</port>
			</output>
		</layer>
		<layer id="239" name="/features/features.2/features.2.0/block/block.3/block.3.0/Conv_output_0_DequantizeLinear" type="FakeQuantize" version="opset1">
			<data levels="256" auto_broadcast="numpy" />
			<input>
				<port id="0" precision="FP32">
					<dim>1</dim>
					<dim>24</dim>
					<dim>56</dim>
					<dim>56</dim>
				</port>
				<port id="1" precision="FP32">
					<dim>1</dim>
					<dim>1</dim>
					<dim>1</dim>
					<dim>1</dim>
				</port>
				<port id="2" precision="FP32">
					<dim>1</dim>
					<dim>1</dim>
					<dim>1</dim>
					<dim>1</dim>
				</port>
				<port id="3" precision="FP32">
					<dim>1</dim>
					<dim>1</dim>
					<dim>1</dim>
					<dim>1</dim>
				</port>
				<port id="4" precision="FP32">
					<dim>1</dim>
					<dim>1</dim>
					<dim>1</dim>
					<dim>1</dim>
				</port>
			</input>
			<output>
				<port id="5" precision="FP32" names="/features/features.2/features.2.0/block/block.3/block.3.0/Conv_output_0_DequantizeLinear_Output">
					<dim>1</dim>
					<dim>24</dim>
					<dim>56</dim>
					<dim>56</dim>
				</port>
			</output>
		</layer>
		<layer id="240" name="onnx::Conv_668_quantized" type="Const" version="opset1">
			<data element_type="i8" shape="144, 24, 1, 1" offset="9712" size="3456" />
			<output>
				<port id="0" precision="I8" names="onnx::Conv_668_quantized">
					<dim>144</dim>
					<dim>24</dim>
					<dim>1</dim>
					<dim>1</dim>
				</port>
			</output>
		</layer>
		<layer id="241" name="Convert_1298" type="Convert" version="opset1">
			<data destination_type="f32" />
			<input>
				<port id="0" precision="I8">
					<dim>144</dim>
					<dim>24</dim>
					<dim>1</dim>
					<dim>1</dim>
				</port>
			</input>
			<output>
				<port id="1" precision="FP32">
					<dim>144</dim>
					<dim>24</dim>
					<dim>1</dim>
					<dim>1</dim>
				</port>
			</output>
		</layer>
		<layer id="242" name="Constant_14088" type="Const" version="opset1">
			<data element_type="f32" shape="1, 1, 1, 1" offset="13168" size="4" />
			<output>
				<port id="0" precision="FP32">
					<dim>1</dim>
					<dim>1</dim>
					<dim>1</dim>
					<dim>1</dim>
				</port>
			</output>
		</layer>
		<layer id="243" name="onnx::Conv_668_DequantizeLinear" type="Multiply" version="opset1">
			<data auto_broadcast="numpy" />
			<input>
				<port id="0" precision="FP32">
					<dim>144</dim>
					<dim>24</dim>
					<dim>1</dim>
					<dim>1</dim>
				</port>
				<port id="1" precision="FP32">
					<dim>1</dim>
					<dim>1</dim>
					<dim>1</dim>
					<dim>1</dim>
				</port>
			</input>
			<output>
				<port id="2" precision="FP32" names="onnx::Conv_668_DequantizeLinear_Output">
					<dim>144</dim>
					<dim>24</dim>
					<dim>1</dim>
					<dim>1</dim>
				</port>
			</output>
		</layer>
		<layer id="244" name="/features/features.2/features.2.1/block/block.0/block.0.0/Conv/WithoutBiases" type="Convolution" version="opset1">
			<data strides="1, 1" dilations="1, 1" pads_begin="0, 0" pads_end="0, 0" auto_pad="explicit" />
			<input>
				<port id="0" precision="FP32">
					<dim>1</dim>
					<dim>24</dim>
					<dim>56</dim>
					<dim>56</dim>
				</port>
				<port id="1" precision="FP32">
					<dim>144</dim>
					<dim>24</dim>
					<dim>1</dim>
					<dim>1</dim>
				</port>
			</input>
			<output>
				<port id="2" precision="FP32">
					<dim>1</dim>
					<dim>144</dim>
					<dim>56</dim>
					<dim>56</dim>
				</port>
			</output>
		</layer>
		<layer id="245" name="Reshape_2334" type="Const" version="opset1">
			<data element_type="f32" shape="1, 144, 1, 1" offset="13172" size="576" />
			<output>
				<port id="0" precision="FP32">
					<dim>1</dim>
					<dim>144</dim>
					<dim>1</dim>
					<dim>1</dim>
				</port>
			</output>
		</layer>
		<layer id="246" name="/features/features.2/features.2.1/block/block.0/block.0.0/Conv" type="Add" version="opset1">
			<data auto_broadcast="numpy" />
			<input>
				<port id="0" precision="FP32">
					<dim>1</dim>
					<dim>144</dim>
					<dim>56</dim>
					<dim>56</dim>
				</port>
				<port id="1" precision="FP32">
					<dim>1</dim>
					<dim>144</dim>
					<dim>1</dim>
					<dim>1</dim>
				</port>
			</input>
			<output>
				<port id="2" precision="FP32" names="/features/features.2/features.2.1/block/block.0/block.0.0/Conv_output_0">
					<dim>1</dim>
					<dim>144</dim>
					<dim>56</dim>
					<dim>56</dim>
				</port>
			</output>
		</layer>
		<layer id="247" name="Constant_14089" type="Const" version="opset1">
			<data element_type="f32" shape="1, 1, 1, 1" offset="13748" size="4" />
			<output>
				<port id="0" precision="FP32">
					<dim>1</dim>
					<dim>1</dim>
					<dim>1</dim>
					<dim>1</dim>
				</port>
			</output>
		</layer>
		<layer id="248" name="Constant_14090" type="Const" version="opset1">
			<data element_type="f32" shape="1, 1, 1, 1" offset="13752" size="4" />
			<output>
				<port id="0" precision="FP32">
					<dim>1</dim>
					<dim>1</dim>
					<dim>1</dim>
					<dim>1</dim>
				</port>
			</output>
		</layer>
		<layer id="249" name="Constant_14091" type="Const" version="opset1">
			<data element_type="f32" shape="1, 1, 1, 1" offset="13748" size="4" />
			<output>
				<port id="0" precision="FP32">
					<dim>1</dim>
					<dim>1</dim>
					<dim>1</dim>
					<dim>1</dim>
				</port>
			</output>
		</layer>
		<layer id="250" name="Constant_14092" type="Const" version="opset1">
			<data element_type="f32" shape="1, 1, 1, 1" offset="13752" size="4" />
			<output>
				<port id="0" precision="FP32">
					<dim>1</dim>
					<dim>1</dim>
					<dim>1</dim>
					<dim>1</dim>
				</port>
			</output>
		</layer>
		<layer id="251" name="/features/features.2/features.2.1/block/block.0/block.0.0/Conv_output_0_DequantizeLinear" type="FakeQuantize" version="opset1">
			<data levels="256" auto_broadcast="numpy" />
			<input>
				<port id="0" precision="FP32">
					<dim>1</dim>
					<dim>144</dim>
					<dim>56</dim>
					<dim>56</dim>
				</port>
				<port id="1" precision="FP32">
					<dim>1</dim>
					<dim>1</dim>
					<dim>1</dim>
					<dim>1</dim>
				</port>
				<port id="2" precision="FP32">
					<dim>1</dim>
					<dim>1</dim>
					<dim>1</dim>
					<dim>1</dim>
				</port>
				<port id="3" precision="FP32">
					<dim>1</dim>
					<dim>1</dim>
					<dim>1</dim>
					<dim>1</dim>
				</port>
				<port id="4" precision="FP32">
					<dim>1</dim>
					<dim>1</dim>
					<dim>1</dim>
					<dim>1</dim>
				</port>
			</input>
			<output>
				<port id="5" precision="FP32" names="/features/features.2/features.2.1/block/block.0/block.0.0/Conv_output_0_DequantizeLinear_Output">
					<dim>1</dim>
					<dim>144</dim>
					<dim>56</dim>
					<dim>56</dim>
				</port>
			</output>
		</layer>
		<layer id="252" name="/features/features.2/features.2.1/block/block.0/block.0.2/Sigmoid" type="Sigmoid" version="opset1">
			<input>
				<port id="0" precision="FP32">
					<dim>1</dim>
					<dim>144</dim>
					<dim>56</dim>
					<dim>56</dim>
				</port>
			</input>
			<output>
				<port id="1" precision="FP32" names="/features/features.2/features.2.1/block/block.0/block.0.2/Sigmoid_output_0">
					<dim>1</dim>
					<dim>144</dim>
					<dim>56</dim>
					<dim>56</dim>
				</port>
			</output>
		</layer>
		<layer id="253" name="Constant_14093" type="Const" version="opset1">
			<data element_type="f32" shape="1, 1, 1, 1" offset="1012" size="4" />
			<output>
				<port id="0" precision="FP32">
					<dim>1</dim>
					<dim>1</dim>
					<dim>1</dim>
					<dim>1</dim>
				</port>
			</output>
		</layer>
		<layer id="254" name="Constant_14094" type="Const" version="opset1">
			<data element_type="f32" shape="1, 1, 1, 1" offset="1016" size="4" />
			<output>
				<port id="0" precision="FP32">
					<dim>1</dim>
					<dim>1</dim>
					<dim>1</dim>
					<dim>1</dim>
				</port>
			</output>
		</layer>
		<layer id="255" name="Constant_14095" type="Const" version="opset1">
			<data element_type="f32" shape="1, 1, 1, 1" offset="1012" size="4" />
			<output>
				<port id="0" precision="FP32">
					<dim>1</dim>
					<dim>1</dim>
					<dim>1</dim>
					<dim>1</dim>
				</port>
			</output>
		</layer>
		<layer id="256" name="Constant_14096" type="Const" version="opset1">
			<data element_type="f32" shape="1, 1, 1, 1" offset="1016" size="4" />
			<output>
				<port id="0" precision="FP32">
					<dim>1</dim>
					<dim>1</dim>
					<dim>1</dim>
					<dim>1</dim>
				</port>
			</output>
		</layer>
		<layer id="257" name="/features/features.2/features.2.1/block/block.0/block.0.2/Sigmoid_output_0_DequantizeLinear" type="FakeQuantize" version="opset1">
			<data levels="256" auto_broadcast="numpy" />
			<input>
				<port id="0" precision="FP32">
					<dim>1</dim>
					<dim>144</dim>
					<dim>56</dim>
					<dim>56</dim>
				</port>
				<port id="1" precision="FP32">
					<dim>1</dim>
					<dim>1</dim>
					<dim>1</dim>
					<dim>1</dim>
				</port>
				<port id="2" precision="FP32">
					<dim>1</dim>
					<dim>1</dim>
					<dim>1</dim>
					<dim>1</dim>
				</port>
				<port id="3" precision="FP32">
					<dim>1</dim>
					<dim>1</dim>
					<dim>1</dim>
					<dim>1</dim>
				</port>
				<port id="4" precision="FP32">
					<dim>1</dim>
					<dim>1</dim>
					<dim>1</dim>
					<dim>1</dim>
				</port>
			</input>
			<output>
				<port id="5" precision="FP32" names="/features/features.2/features.2.1/block/block.0/block.0.2/Sigmoid_output_0_DequantizeLinear_Output">
					<dim>1</dim>
					<dim>144</dim>
					<dim>56</dim>
					<dim>56</dim>
				</port>
			</output>
		</layer>
		<layer id="258" name="/features/features.2/features.2.1/block/block.0/block.0.2/Mul" type="Multiply" version="opset1">
			<data auto_broadcast="numpy" />
			<input>
				<port id="0" precision="FP32">
					<dim>1</dim>
					<dim>144</dim>
					<dim>56</dim>
					<dim>56</dim>
				</port>
				<port id="1" precision="FP32">
					<dim>1</dim>
					<dim>144</dim>
					<dim>56</dim>
					<dim>56</dim>
				</port>
			</input>
			<output>
				<port id="2" precision="FP32" names="/features/features.2/features.2.1/block/block.0/block.0.2/Mul_output_0">
					<dim>1</dim>
					<dim>144</dim>
					<dim>56</dim>
					<dim>56</dim>
				</port>
			</output>
		</layer>
		<layer id="259" name="Constant_14097" type="Const" version="opset1">
			<data element_type="f32" shape="1, 1, 1, 1" offset="13756" size="4" />
			<output>
				<port id="0" precision="FP32">
					<dim>1</dim>
					<dim>1</dim>
					<dim>1</dim>
					<dim>1</dim>
				</port>
			</output>
		</layer>
		<layer id="260" name="Constant_14098" type="Const" version="opset1">
			<data element_type="f32" shape="1, 1, 1, 1" offset="13760" size="4" />
			<output>
				<port id="0" precision="FP32">
					<dim>1</dim>
					<dim>1</dim>
					<dim>1</dim>
					<dim>1</dim>
				</port>
			</output>
		</layer>
		<layer id="261" name="Constant_14099" type="Const" version="opset1">
			<data element_type="f32" shape="1, 1, 1, 1" offset="13756" size="4" />
			<output>
				<port id="0" precision="FP32">
					<dim>1</dim>
					<dim>1</dim>
					<dim>1</dim>
					<dim>1</dim>
				</port>
			</output>
		</layer>
		<layer id="262" name="Constant_14100" type="Const" version="opset1">
			<data element_type="f32" shape="1, 1, 1, 1" offset="13760" size="4" />
			<output>
				<port id="0" precision="FP32">
					<dim>1</dim>
					<dim>1</dim>
					<dim>1</dim>
					<dim>1</dim>
				</port>
			</output>
		</layer>
		<layer id="263" name="/features/features.2/features.2.1/block/block.0/block.0.2/Mul_output_0_DequantizeLinear" type="FakeQuantize" version="opset1">
			<data levels="256" auto_broadcast="numpy" />
			<input>
				<port id="0" precision="FP32">
					<dim>1</dim>
					<dim>144</dim>
					<dim>56</dim>
					<dim>56</dim>
				</port>
				<port id="1" precision="FP32">
					<dim>1</dim>
					<dim>1</dim>
					<dim>1</dim>
					<dim>1</dim>
				</port>
				<port id="2" precision="FP32">
					<dim>1</dim>
					<dim>1</dim>
					<dim>1</dim>
					<dim>1</dim>
				</port>
				<port id="3" precision="FP32">
					<dim>1</dim>
					<dim>1</dim>
					<dim>1</dim>
					<dim>1</dim>
				</port>
				<port id="4" precision="FP32">
					<dim>1</dim>
					<dim>1</dim>
					<dim>1</dim>
					<dim>1</dim>
				</port>
			</input>
			<output>
				<port id="5" precision="FP32" names="/features/features.2/features.2.1/block/block.0/block.0.2/Mul_output_0_DequantizeLinear_Output">
					<dim>1</dim>
					<dim>144</dim>
					<dim>56</dim>
					<dim>56</dim>
				</port>
			</output>
		</layer>
		<layer id="264" name="onnx::Conv_671_quantized" type="Const" version="opset1">
			<data element_type="i8" shape="144, 1, 3, 3" offset="13764" size="1296" />
			<output>
				<port id="0" precision="I8" names="onnx::Conv_671_quantized">
					<dim>144</dim>
					<dim>1</dim>
					<dim>3</dim>
					<dim>3</dim>
				</port>
			</output>
		</layer>
		<layer id="265" name="Convert_1306" type="Convert" version="opset1">
			<data destination_type="f32" />
			<input>
				<port id="0" precision="I8">
					<dim>144</dim>
					<dim>1</dim>
					<dim>3</dim>
					<dim>3</dim>
				</port>
			</input>
			<output>
				<port id="1" precision="FP32">
					<dim>144</dim>
					<dim>1</dim>
					<dim>3</dim>
					<dim>3</dim>
				</port>
			</output>
		</layer>
		<layer id="266" name="Constant_14101" type="Const" version="opset1">
			<data element_type="f32" shape="1, 1, 1, 1" offset="15060" size="4" />
			<output>
				<port id="0" precision="FP32">
					<dim>1</dim>
					<dim>1</dim>
					<dim>1</dim>
					<dim>1</dim>
				</port>
			</output>
		</layer>
		<layer id="267" name="onnx::Conv_671_DequantizeLinear" type="Multiply" version="opset1">
			<data auto_broadcast="numpy" />
			<input>
				<port id="0" precision="FP32">
					<dim>144</dim>
					<dim>1</dim>
					<dim>3</dim>
					<dim>3</dim>
				</port>
				<port id="1" precision="FP32">
					<dim>1</dim>
					<dim>1</dim>
					<dim>1</dim>
					<dim>1</dim>
				</port>
			</input>
			<output>
				<port id="2" precision="FP32" names="onnx::Conv_671_DequantizeLinear_Output">
					<dim>144</dim>
					<dim>1</dim>
					<dim>3</dim>
					<dim>3</dim>
				</port>
			</output>
		</layer>
		<layer id="268" name="Constant_15680" type="Const" version="opset1">
			<data element_type="i64" shape="5" offset="15064" size="40" />
			<output>
				<port id="0" precision="I64">
					<dim>5</dim>
				</port>
			</output>
		</layer>
		<layer id="269" name="Reshape_2390" type="Reshape" version="opset1">
			<data special_zero="true" />
			<input>
				<port id="0" precision="FP32">
					<dim>144</dim>
					<dim>1</dim>
					<dim>3</dim>
					<dim>3</dim>
				</port>
				<port id="1" precision="I64">
					<dim>5</dim>
				</port>
			</input>
			<output>
				<port id="2" precision="FP32">
					<dim>144</dim>
					<dim>1</dim>
					<dim>1</dim>
					<dim>3</dim>
					<dim>3</dim>
				</port>
			</output>
		</layer>
		<layer id="270" name="/features/features.2/features.2.1/block/block.1/block.1.0/Conv/WithoutBiases" type="GroupConvolution" version="opset1">
			<data strides="1, 1" pads_begin="1, 1" pads_end="1, 1" dilations="1, 1" auto_pad="explicit" />
			<input>
				<port id="0" precision="FP32">
					<dim>1</dim>
					<dim>144</dim>
					<dim>56</dim>
					<dim>56</dim>
				</port>
				<port id="1" precision="FP32">
					<dim>144</dim>
					<dim>1</dim>
					<dim>1</dim>
					<dim>3</dim>
					<dim>3</dim>
				</port>
			</input>
			<output>
				<port id="2" precision="FP32">
					<dim>1</dim>
					<dim>144</dim>
					<dim>56</dim>
					<dim>56</dim>
				</port>
			</output>
		</layer>
		<layer id="271" name="Reshape_2440" type="Const" version="opset1">
			<data element_type="f32" shape="1, 144, 1, 1" offset="15104" size="576" />
			<output>
				<port id="0" precision="FP32">
					<dim>1</dim>
					<dim>144</dim>
					<dim>1</dim>
					<dim>1</dim>
				</port>
			</output>
		</layer>
		<layer id="272" name="/features/features.2/features.2.1/block/block.1/block.1.0/Conv" type="Add" version="opset1">
			<data auto_broadcast="numpy" />
			<input>
				<port id="0" precision="FP32">
					<dim>1</dim>
					<dim>144</dim>
					<dim>56</dim>
					<dim>56</dim>
				</port>
				<port id="1" precision="FP32">
					<dim>1</dim>
					<dim>144</dim>
					<dim>1</dim>
					<dim>1</dim>
				</port>
			</input>
			<output>
				<port id="2" precision="FP32" names="/features/features.2/features.2.1/block/block.1/block.1.0/Conv_output_0">
					<dim>1</dim>
					<dim>144</dim>
					<dim>56</dim>
					<dim>56</dim>
				</port>
			</output>
		</layer>
		<layer id="273" name="Constant_14102" type="Const" version="opset1">
			<data element_type="f32" shape="1, 1, 1, 1" offset="15680" size="4" />
			<output>
				<port id="0" precision="FP32">
					<dim>1</dim>
					<dim>1</dim>
					<dim>1</dim>
					<dim>1</dim>
				</port>
			</output>
		</layer>
		<layer id="274" name="Constant_14103" type="Const" version="opset1">
			<data element_type="f32" shape="1, 1, 1, 1" offset="15684" size="4" />
			<output>
				<port id="0" precision="FP32">
					<dim>1</dim>
					<dim>1</dim>
					<dim>1</dim>
					<dim>1</dim>
				</port>
			</output>
		</layer>
		<layer id="275" name="Constant_14104" type="Const" version="opset1">
			<data element_type="f32" shape="1, 1, 1, 1" offset="15680" size="4" />
			<output>
				<port id="0" precision="FP32">
					<dim>1</dim>
					<dim>1</dim>
					<dim>1</dim>
					<dim>1</dim>
				</port>
			</output>
		</layer>
		<layer id="276" name="Constant_14105" type="Const" version="opset1">
			<data element_type="f32" shape="1, 1, 1, 1" offset="15684" size="4" />
			<output>
				<port id="0" precision="FP32">
					<dim>1</dim>
					<dim>1</dim>
					<dim>1</dim>
					<dim>1</dim>
				</port>
			</output>
		</layer>
		<layer id="277" name="/features/features.2/features.2.1/block/block.1/block.1.0/Conv_output_0_DequantizeLinear" type="FakeQuantize" version="opset1">
			<data levels="256" auto_broadcast="numpy" />
			<input>
				<port id="0" precision="FP32">
					<dim>1</dim>
					<dim>144</dim>
					<dim>56</dim>
					<dim>56</dim>
				</port>
				<port id="1" precision="FP32">
					<dim>1</dim>
					<dim>1</dim>
					<dim>1</dim>
					<dim>1</dim>
				</port>
				<port id="2" precision="FP32">
					<dim>1</dim>
					<dim>1</dim>
					<dim>1</dim>
					<dim>1</dim>
				</port>
				<port id="3" precision="FP32">
					<dim>1</dim>
					<dim>1</dim>
					<dim>1</dim>
					<dim>1</dim>
				</port>
				<port id="4" precision="FP32">
					<dim>1</dim>
					<dim>1</dim>
					<dim>1</dim>
					<dim>1</dim>
				</port>
			</input>
			<output>
				<port id="5" precision="FP32" names="/features/features.2/features.2.1/block/block.1/block.1.0/Conv_output_0_DequantizeLinear_Output">
					<dim>1</dim>
					<dim>144</dim>
					<dim>56</dim>
					<dim>56</dim>
				</port>
			</output>
		</layer>
		<layer id="278" name="/features/features.2/features.2.1/block/block.1/block.1.2/Sigmoid" type="Sigmoid" version="opset1">
			<input>
				<port id="0" precision="FP32">
					<dim>1</dim>
					<dim>144</dim>
					<dim>56</dim>
					<dim>56</dim>
				</port>
			</input>
			<output>
				<port id="1" precision="FP32" names="/features/features.2/features.2.1/block/block.1/block.1.2/Sigmoid_output_0">
					<dim>1</dim>
					<dim>144</dim>
					<dim>56</dim>
					<dim>56</dim>
				</port>
			</output>
		</layer>
		<layer id="279" name="Constant_14106" type="Const" version="opset1">
			<data element_type="f32" shape="1, 1, 1, 1" offset="1012" size="4" />
			<output>
				<port id="0" precision="FP32">
					<dim>1</dim>
					<dim>1</dim>
					<dim>1</dim>
					<dim>1</dim>
				</port>
			</output>
		</layer>
		<layer id="280" name="Constant_14107" type="Const" version="opset1">
			<data element_type="f32" shape="1, 1, 1, 1" offset="1016" size="4" />
			<output>
				<port id="0" precision="FP32">
					<dim>1</dim>
					<dim>1</dim>
					<dim>1</dim>
					<dim>1</dim>
				</port>
			</output>
		</layer>
		<layer id="281" name="Constant_14108" type="Const" version="opset1">
			<data element_type="f32" shape="1, 1, 1, 1" offset="1012" size="4" />
			<output>
				<port id="0" precision="FP32">
					<dim>1</dim>
					<dim>1</dim>
					<dim>1</dim>
					<dim>1</dim>
				</port>
			</output>
		</layer>
		<layer id="282" name="Constant_14109" type="Const" version="opset1">
			<data element_type="f32" shape="1, 1, 1, 1" offset="1016" size="4" />
			<output>
				<port id="0" precision="FP32">
					<dim>1</dim>
					<dim>1</dim>
					<dim>1</dim>
					<dim>1</dim>
				</port>
			</output>
		</layer>
		<layer id="283" name="/features/features.2/features.2.1/block/block.1/block.1.2/Sigmoid_output_0_DequantizeLinear" type="FakeQuantize" version="opset1">
			<data levels="256" auto_broadcast="numpy" />
			<input>
				<port id="0" precision="FP32">
					<dim>1</dim>
					<dim>144</dim>
					<dim>56</dim>
					<dim>56</dim>
				</port>
				<port id="1" precision="FP32">
					<dim>1</dim>
					<dim>1</dim>
					<dim>1</dim>
					<dim>1</dim>
				</port>
				<port id="2" precision="FP32">
					<dim>1</dim>
					<dim>1</dim>
					<dim>1</dim>
					<dim>1</dim>
				</port>
				<port id="3" precision="FP32">
					<dim>1</dim>
					<dim>1</dim>
					<dim>1</dim>
					<dim>1</dim>
				</port>
				<port id="4" precision="FP32">
					<dim>1</dim>
					<dim>1</dim>
					<dim>1</dim>
					<dim>1</dim>
				</port>
			</input>
			<output>
				<port id="5" precision="FP32" names="/features/features.2/features.2.1/block/block.1/block.1.2/Sigmoid_output_0_DequantizeLinear_Output">
					<dim>1</dim>
					<dim>144</dim>
					<dim>56</dim>
					<dim>56</dim>
				</port>
			</output>
		</layer>
		<layer id="284" name="/features/features.2/features.2.1/block/block.1/block.1.2/Mul" type="Multiply" version="opset1">
			<data auto_broadcast="numpy" />
			<input>
				<port id="0" precision="FP32">
					<dim>1</dim>
					<dim>144</dim>
					<dim>56</dim>
					<dim>56</dim>
				</port>
				<port id="1" precision="FP32">
					<dim>1</dim>
					<dim>144</dim>
					<dim>56</dim>
					<dim>56</dim>
				</port>
			</input>
			<output>
				<port id="2" precision="FP32" names="/features/features.2/features.2.1/block/block.1/block.1.2/Mul_output_0">
					<dim>1</dim>
					<dim>144</dim>
					<dim>56</dim>
					<dim>56</dim>
				</port>
			</output>
		</layer>
		<layer id="285" name="Constant_14110" type="Const" version="opset1">
			<data element_type="f32" shape="1, 1, 1, 1" offset="15688" size="4" />
			<output>
				<port id="0" precision="FP32">
					<dim>1</dim>
					<dim>1</dim>
					<dim>1</dim>
					<dim>1</dim>
				</port>
			</output>
		</layer>
		<layer id="286" name="Constant_14111" type="Const" version="opset1">
			<data element_type="f32" shape="1, 1, 1, 1" offset="15692" size="4" />
			<output>
				<port id="0" precision="FP32">
					<dim>1</dim>
					<dim>1</dim>
					<dim>1</dim>
					<dim>1</dim>
				</port>
			</output>
		</layer>
		<layer id="287" name="Constant_14112" type="Const" version="opset1">
			<data element_type="f32" shape="1, 1, 1, 1" offset="15688" size="4" />
			<output>
				<port id="0" precision="FP32">
					<dim>1</dim>
					<dim>1</dim>
					<dim>1</dim>
					<dim>1</dim>
				</port>
			</output>
		</layer>
		<layer id="288" name="Constant_14113" type="Const" version="opset1">
			<data element_type="f32" shape="1, 1, 1, 1" offset="15692" size="4" />
			<output>
				<port id="0" precision="FP32">
					<dim>1</dim>
					<dim>1</dim>
					<dim>1</dim>
					<dim>1</dim>
				</port>
			</output>
		</layer>
		<layer id="289" name="/features/features.2/features.2.1/block/block.1/block.1.2/Mul_output_0_DequantizeLinear" type="FakeQuantize" version="opset1">
			<data levels="256" auto_broadcast="numpy" />
			<input>
				<port id="0" precision="FP32">
					<dim>1</dim>
					<dim>144</dim>
					<dim>56</dim>
					<dim>56</dim>
				</port>
				<port id="1" precision="FP32">
					<dim>1</dim>
					<dim>1</dim>
					<dim>1</dim>
					<dim>1</dim>
				</port>
				<port id="2" precision="FP32">
					<dim>1</dim>
					<dim>1</dim>
					<dim>1</dim>
					<dim>1</dim>
				</port>
				<port id="3" precision="FP32">
					<dim>1</dim>
					<dim>1</dim>
					<dim>1</dim>
					<dim>1</dim>
				</port>
				<port id="4" precision="FP32">
					<dim>1</dim>
					<dim>1</dim>
					<dim>1</dim>
					<dim>1</dim>
				</port>
			</input>
			<output>
				<port id="5" precision="FP32" names="/features/features.2/features.2.1/block/block.1/block.1.2/Mul_output_0_DequantizeLinear_Output">
					<dim>1</dim>
					<dim>144</dim>
					<dim>56</dim>
					<dim>56</dim>
				</port>
			</output>
		</layer>
		<layer id="290" name="Range_2495" type="Const" version="opset1">
			<data element_type="i64" shape="2" offset="1504" size="16" />
			<output>
				<port id="0" precision="I64">
					<dim>2</dim>
				</port>
			</output>
		</layer>
		<layer id="291" name="/features/features.2/features.2.1/block/block.2/avgpool/GlobalAveragePool" type="ReduceMean" version="opset1">
			<data keep_dims="true" />
			<input>
				<port id="0" precision="FP32">
					<dim>1</dim>
					<dim>144</dim>
					<dim>56</dim>
					<dim>56</dim>
				</port>
				<port id="1" precision="I64">
					<dim>2</dim>
				</port>
			</input>
			<output>
				<port id="2" precision="FP32" names="/features/features.2/features.2.1/block/block.2/avgpool/GlobalAveragePool_output_0">
					<dim>1</dim>
					<dim>144</dim>
					<dim>1</dim>
					<dim>1</dim>
				</port>
			</output>
		</layer>
		<layer id="292" name="Constant_14114" type="Const" version="opset1">
			<data element_type="f32" shape="1, 1, 1, 1" offset="15696" size="4" />
			<output>
				<port id="0" precision="FP32">
					<dim>1</dim>
					<dim>1</dim>
					<dim>1</dim>
					<dim>1</dim>
				</port>
			</output>
		</layer>
		<layer id="293" name="Constant_14115" type="Const" version="opset1">
			<data element_type="f32" shape="1, 1, 1, 1" offset="15700" size="4" />
			<output>
				<port id="0" precision="FP32">
					<dim>1</dim>
					<dim>1</dim>
					<dim>1</dim>
					<dim>1</dim>
				</port>
			</output>
		</layer>
		<layer id="294" name="Constant_14116" type="Const" version="opset1">
			<data element_type="f32" shape="1, 1, 1, 1" offset="15696" size="4" />
			<output>
				<port id="0" precision="FP32">
					<dim>1</dim>
					<dim>1</dim>
					<dim>1</dim>
					<dim>1</dim>
				</port>
			</output>
		</layer>
		<layer id="295" name="Constant_14117" type="Const" version="opset1">
			<data element_type="f32" shape="1, 1, 1, 1" offset="15700" size="4" />
			<output>
				<port id="0" precision="FP32">
					<dim>1</dim>
					<dim>1</dim>
					<dim>1</dim>
					<dim>1</dim>
				</port>
			</output>
		</layer>
		<layer id="296" name="/features/features.2/features.2.1/block/block.2/avgpool/GlobalAveragePool_output_0_DequantizeLinear" type="FakeQuantize" version="opset1">
			<data levels="256" auto_broadcast="numpy" />
			<input>
				<port id="0" precision="FP32">
					<dim>1</dim>
					<dim>144</dim>
					<dim>1</dim>
					<dim>1</dim>
				</port>
				<port id="1" precision="FP32">
					<dim>1</dim>
					<dim>1</dim>
					<dim>1</dim>
					<dim>1</dim>
				</port>
				<port id="2" precision="FP32">
					<dim>1</dim>
					<dim>1</dim>
					<dim>1</dim>
					<dim>1</dim>
				</port>
				<port id="3" precision="FP32">
					<dim>1</dim>
					<dim>1</dim>
					<dim>1</dim>
					<dim>1</dim>
				</port>
				<port id="4" precision="FP32">
					<dim>1</dim>
					<dim>1</dim>
					<dim>1</dim>
					<dim>1</dim>
				</port>
			</input>
			<output>
				<port id="5" precision="FP32" names="/features/features.2/features.2.1/block/block.2/avgpool/GlobalAveragePool_output_0_DequantizeLinear_Output">
					<dim>1</dim>
					<dim>144</dim>
					<dim>1</dim>
					<dim>1</dim>
				</port>
			</output>
		</layer>
		<layer id="297" name="features.2.1.block.2.fc1.weight_quantized" type="Const" version="opset1">
			<data element_type="i8" shape="6, 144, 1, 1" offset="15704" size="864" />
			<output>
				<port id="0" precision="I8" names="features.2.1.block.2.fc1.weight_quantized">
					<dim>6</dim>
					<dim>144</dim>
					<dim>1</dim>
					<dim>1</dim>
				</port>
			</output>
		</layer>
		<layer id="298" name="Convert_1019" type="Convert" version="opset1">
			<data destination_type="f32" />
			<input>
				<port id="0" precision="I8">
					<dim>6</dim>
					<dim>144</dim>
					<dim>1</dim>
					<dim>1</dim>
				</port>
			</input>
			<output>
				<port id="1" precision="FP32">
					<dim>6</dim>
					<dim>144</dim>
					<dim>1</dim>
					<dim>1</dim>
				</port>
			</output>
		</layer>
		<layer id="299" name="Constant_14118" type="Const" version="opset1">
			<data element_type="f32" shape="1, 1, 1, 1" offset="16568" size="4" />
			<output>
				<port id="0" precision="FP32">
					<dim>1</dim>
					<dim>1</dim>
					<dim>1</dim>
					<dim>1</dim>
				</port>
			</output>
		</layer>
		<layer id="300" name="features.2.1.block.2.fc1.weight_DequantizeLinear" type="Multiply" version="opset1">
			<data auto_broadcast="numpy" />
			<input>
				<port id="0" precision="FP32">
					<dim>6</dim>
					<dim>144</dim>
					<dim>1</dim>
					<dim>1</dim>
				</port>
				<port id="1" precision="FP32">
					<dim>1</dim>
					<dim>1</dim>
					<dim>1</dim>
					<dim>1</dim>
				</port>
			</input>
			<output>
				<port id="2" precision="FP32" names="features.2.1.block.2.fc1.weight_DequantizeLinear_Output">
					<dim>6</dim>
					<dim>144</dim>
					<dim>1</dim>
					<dim>1</dim>
				</port>
			</output>
		</layer>
		<layer id="301" name="/features/features.2/features.2.1/block/block.2/fc1/Conv/WithoutBiases" type="Convolution" version="opset1">
			<data strides="1, 1" dilations="1, 1" pads_begin="0, 0" pads_end="0, 0" auto_pad="explicit" />
			<input>
				<port id="0" precision="FP32">
					<dim>1</dim>
					<dim>144</dim>
					<dim>1</dim>
					<dim>1</dim>
				</port>
				<port id="1" precision="FP32">
					<dim>6</dim>
					<dim>144</dim>
					<dim>1</dim>
					<dim>1</dim>
				</port>
			</input>
			<output>
				<port id="2" precision="FP32">
					<dim>1</dim>
					<dim>6</dim>
					<dim>1</dim>
					<dim>1</dim>
				</port>
			</output>
		</layer>
		<layer id="302" name="Reshape_2525" type="Const" version="opset1">
			<data element_type="f32" shape="1, 6, 1, 1" offset="16572" size="24" />
			<output>
				<port id="0" precision="FP32">
					<dim>1</dim>
					<dim>6</dim>
					<dim>1</dim>
					<dim>1</dim>
				</port>
			</output>
		</layer>
		<layer id="303" name="/features/features.2/features.2.1/block/block.2/fc1/Conv" type="Add" version="opset1">
			<data auto_broadcast="numpy" />
			<input>
				<port id="0" precision="FP32">
					<dim>1</dim>
					<dim>6</dim>
					<dim>1</dim>
					<dim>1</dim>
				</port>
				<port id="1" precision="FP32">
					<dim>1</dim>
					<dim>6</dim>
					<dim>1</dim>
					<dim>1</dim>
				</port>
			</input>
			<output>
				<port id="2" precision="FP32" names="/features/features.2/features.2.1/block/block.2/fc1/Conv_output_0">
					<dim>1</dim>
					<dim>6</dim>
					<dim>1</dim>
					<dim>1</dim>
				</port>
			</output>
		</layer>
		<layer id="304" name="Constant_14119" type="Const" version="opset1">
			<data element_type="f32" shape="1, 1, 1, 1" offset="16596" size="4" />
			<output>
				<port id="0" precision="FP32">
					<dim>1</dim>
					<dim>1</dim>
					<dim>1</dim>
					<dim>1</dim>
				</port>
			</output>
		</layer>
		<layer id="305" name="Constant_14120" type="Const" version="opset1">
			<data element_type="f32" shape="1, 1, 1, 1" offset="16600" size="4" />
			<output>
				<port id="0" precision="FP32">
					<dim>1</dim>
					<dim>1</dim>
					<dim>1</dim>
					<dim>1</dim>
				</port>
			</output>
		</layer>
		<layer id="306" name="Constant_14121" type="Const" version="opset1">
			<data element_type="f32" shape="1, 1, 1, 1" offset="16596" size="4" />
			<output>
				<port id="0" precision="FP32">
					<dim>1</dim>
					<dim>1</dim>
					<dim>1</dim>
					<dim>1</dim>
				</port>
			</output>
		</layer>
		<layer id="307" name="Constant_14122" type="Const" version="opset1">
			<data element_type="f32" shape="1, 1, 1, 1" offset="16600" size="4" />
			<output>
				<port id="0" precision="FP32">
					<dim>1</dim>
					<dim>1</dim>
					<dim>1</dim>
					<dim>1</dim>
				</port>
			</output>
		</layer>
		<layer id="308" name="/features/features.2/features.2.1/block/block.2/fc1/Conv_output_0_DequantizeLinear" type="FakeQuantize" version="opset1">
			<data levels="256" auto_broadcast="numpy" />
			<input>
				<port id="0" precision="FP32">
					<dim>1</dim>
					<dim>6</dim>
					<dim>1</dim>
					<dim>1</dim>
				</port>
				<port id="1" precision="FP32">
					<dim>1</dim>
					<dim>1</dim>
					<dim>1</dim>
					<dim>1</dim>
				</port>
				<port id="2" precision="FP32">
					<dim>1</dim>
					<dim>1</dim>
					<dim>1</dim>
					<dim>1</dim>
				</port>
				<port id="3" precision="FP32">
					<dim>1</dim>
					<dim>1</dim>
					<dim>1</dim>
					<dim>1</dim>
				</port>
				<port id="4" precision="FP32">
					<dim>1</dim>
					<dim>1</dim>
					<dim>1</dim>
					<dim>1</dim>
				</port>
			</input>
			<output>
				<port id="5" precision="FP32" names="/features/features.2/features.2.1/block/block.2/fc1/Conv_output_0_DequantizeLinear_Output">
					<dim>1</dim>
					<dim>6</dim>
					<dim>1</dim>
					<dim>1</dim>
				</port>
			</output>
		</layer>
		<layer id="309" name="/features/features.2/features.2.1/block/block.2/activation/Sigmoid" type="Sigmoid" version="opset1">
			<input>
				<port id="0" precision="FP32">
					<dim>1</dim>
					<dim>6</dim>
					<dim>1</dim>
					<dim>1</dim>
				</port>
			</input>
			<output>
				<port id="1" precision="FP32" names="/features/features.2/features.2.1/block/block.2/activation/Sigmoid_output_0">
					<dim>1</dim>
					<dim>6</dim>
					<dim>1</dim>
					<dim>1</dim>
				</port>
			</output>
		</layer>
		<layer id="310" name="Constant_14123" type="Const" version="opset1">
			<data element_type="f32" shape="1, 1, 1, 1" offset="1012" size="4" />
			<output>
				<port id="0" precision="FP32">
					<dim>1</dim>
					<dim>1</dim>
					<dim>1</dim>
					<dim>1</dim>
				</port>
			</output>
		</layer>
		<layer id="311" name="Constant_14124" type="Const" version="opset1">
			<data element_type="f32" shape="1, 1, 1, 1" offset="16604" size="4" />
			<output>
				<port id="0" precision="FP32">
					<dim>1</dim>
					<dim>1</dim>
					<dim>1</dim>
					<dim>1</dim>
				</port>
			</output>
		</layer>
		<layer id="312" name="Constant_14125" type="Const" version="opset1">
			<data element_type="f32" shape="1, 1, 1, 1" offset="1012" size="4" />
			<output>
				<port id="0" precision="FP32">
					<dim>1</dim>
					<dim>1</dim>
					<dim>1</dim>
					<dim>1</dim>
				</port>
			</output>
		</layer>
		<layer id="313" name="Constant_14126" type="Const" version="opset1">
			<data element_type="f32" shape="1, 1, 1, 1" offset="16604" size="4" />
			<output>
				<port id="0" precision="FP32">
					<dim>1</dim>
					<dim>1</dim>
					<dim>1</dim>
					<dim>1</dim>
				</port>
			</output>
		</layer>
		<layer id="314" name="/features/features.2/features.2.1/block/block.2/activation/Sigmoid_output_0_DequantizeLinear" type="FakeQuantize" version="opset1">
			<data levels="256" auto_broadcast="numpy" />
			<input>
				<port id="0" precision="FP32">
					<dim>1</dim>
					<dim>6</dim>
					<dim>1</dim>
					<dim>1</dim>
				</port>
				<port id="1" precision="FP32">
					<dim>1</dim>
					<dim>1</dim>
					<dim>1</dim>
					<dim>1</dim>
				</port>
				<port id="2" precision="FP32">
					<dim>1</dim>
					<dim>1</dim>
					<dim>1</dim>
					<dim>1</dim>
				</port>
				<port id="3" precision="FP32">
					<dim>1</dim>
					<dim>1</dim>
					<dim>1</dim>
					<dim>1</dim>
				</port>
				<port id="4" precision="FP32">
					<dim>1</dim>
					<dim>1</dim>
					<dim>1</dim>
					<dim>1</dim>
				</port>
			</input>
			<output>
				<port id="5" precision="FP32" names="/features/features.2/features.2.1/block/block.2/activation/Sigmoid_output_0_DequantizeLinear_Output">
					<dim>1</dim>
					<dim>6</dim>
					<dim>1</dim>
					<dim>1</dim>
				</port>
			</output>
		</layer>
		<layer id="315" name="/features/features.2/features.2.1/block/block.2/activation/Mul" type="Multiply" version="opset1">
			<data auto_broadcast="numpy" />
			<input>
				<port id="0" precision="FP32">
					<dim>1</dim>
					<dim>6</dim>
					<dim>1</dim>
					<dim>1</dim>
				</port>
				<port id="1" precision="FP32">
					<dim>1</dim>
					<dim>6</dim>
					<dim>1</dim>
					<dim>1</dim>
				</port>
			</input>
			<output>
				<port id="2" precision="FP32" names="/features/features.2/features.2.1/block/block.2/activation/Mul_output_0">
					<dim>1</dim>
					<dim>6</dim>
					<dim>1</dim>
					<dim>1</dim>
				</port>
			</output>
		</layer>
		<layer id="316" name="Constant_14127" type="Const" version="opset1">
			<data element_type="f32" shape="1, 1, 1, 1" offset="16608" size="4" />
			<output>
				<port id="0" precision="FP32">
					<dim>1</dim>
					<dim>1</dim>
					<dim>1</dim>
					<dim>1</dim>
				</port>
			</output>
		</layer>
		<layer id="317" name="Constant_14128" type="Const" version="opset1">
			<data element_type="f32" shape="1, 1, 1, 1" offset="16612" size="4" />
			<output>
				<port id="0" precision="FP32">
					<dim>1</dim>
					<dim>1</dim>
					<dim>1</dim>
					<dim>1</dim>
				</port>
			</output>
		</layer>
		<layer id="318" name="Constant_14129" type="Const" version="opset1">
			<data element_type="f32" shape="1, 1, 1, 1" offset="16608" size="4" />
			<output>
				<port id="0" precision="FP32">
					<dim>1</dim>
					<dim>1</dim>
					<dim>1</dim>
					<dim>1</dim>
				</port>
			</output>
		</layer>
		<layer id="319" name="Constant_14130" type="Const" version="opset1">
			<data element_type="f32" shape="1, 1, 1, 1" offset="16612" size="4" />
			<output>
				<port id="0" precision="FP32">
					<dim>1</dim>
					<dim>1</dim>
					<dim>1</dim>
					<dim>1</dim>
				</port>
			</output>
		</layer>
		<layer id="320" name="/features/features.2/features.2.1/block/block.2/activation/Mul_output_0_DequantizeLinear" type="FakeQuantize" version="opset1">
			<data levels="256" auto_broadcast="numpy" />
			<input>
				<port id="0" precision="FP32">
					<dim>1</dim>
					<dim>6</dim>
					<dim>1</dim>
					<dim>1</dim>
				</port>
				<port id="1" precision="FP32">
					<dim>1</dim>
					<dim>1</dim>
					<dim>1</dim>
					<dim>1</dim>
				</port>
				<port id="2" precision="FP32">
					<dim>1</dim>
					<dim>1</dim>
					<dim>1</dim>
					<dim>1</dim>
				</port>
				<port id="3" precision="FP32">
					<dim>1</dim>
					<dim>1</dim>
					<dim>1</dim>
					<dim>1</dim>
				</port>
				<port id="4" precision="FP32">
					<dim>1</dim>
					<dim>1</dim>
					<dim>1</dim>
					<dim>1</dim>
				</port>
			</input>
			<output>
				<port id="5" precision="FP32" names="/features/features.2/features.2.1/block/block.2/activation/Mul_output_0_DequantizeLinear_Output">
					<dim>1</dim>
					<dim>6</dim>
					<dim>1</dim>
					<dim>1</dim>
				</port>
			</output>
		</layer>
		<layer id="321" name="features.2.1.block.2.fc2.weight_quantized" type="Const" version="opset1">
			<data element_type="i8" shape="144, 6, 1, 1" offset="16616" size="864" />
			<output>
				<port id="0" precision="I8" names="features.2.1.block.2.fc2.weight_quantized">
					<dim>144</dim>
					<dim>6</dim>
					<dim>1</dim>
					<dim>1</dim>
				</port>
			</output>
		</layer>
		<layer id="322" name="Convert_1027" type="Convert" version="opset1">
			<data destination_type="f32" />
			<input>
				<port id="0" precision="I8">
					<dim>144</dim>
					<dim>6</dim>
					<dim>1</dim>
					<dim>1</dim>
				</port>
			</input>
			<output>
				<port id="1" precision="FP32">
					<dim>144</dim>
					<dim>6</dim>
					<dim>1</dim>
					<dim>1</dim>
				</port>
			</output>
		</layer>
		<layer id="323" name="Constant_14131" type="Const" version="opset1">
			<data element_type="f32" shape="1, 1, 1, 1" offset="17480" size="4" />
			<output>
				<port id="0" precision="FP32">
					<dim>1</dim>
					<dim>1</dim>
					<dim>1</dim>
					<dim>1</dim>
…
		<edge from-layer="1308" from-port="0" to-layer="1310" to-port="3" />
		<edge from-layer="1309" from-port="0" to-layer="1310" to-port="4" />
		<edge from-layer="1310" from-port="5" to-layer="1315" to-port="0" />
		<edge from-layer="1311" from-port="0" to-layer="1312" to-port="0" />
		<edge from-layer="1312" from-port="1" to-layer="1314" to-port="0" />
		<edge from-layer="1313" from-port="0" to-layer="1314" to-port="1" />
		<edge from-layer="1314" from-port="2" to-layer="1315" to-port="1" />
		<edge from-layer="1315" from-port="2" to-layer="1317" to-port="0" />
		<edge from-layer="1316" from-port="0" to-layer="1317" to-port="1" />
		<edge from-layer="1317" from-port="2" to-layer="1322" to-port="0" />
		<edge from-layer="1318" from-port="0" to-layer="1322" to-port="1" />
		<edge from-layer="1319" from-port="0" to-layer="1322" to-port="2" />
		<edge from-layer="1320" from-port="0" to-layer="1322" to-port="3" />
		<edge from-layer="1321" from-port="0" to-layer="1322" to-port="4" />
		<edge from-layer="1322" from-port="5" to-layer="1323" to-port="0" />
		<edge from-layer="1323" from-port="2" to-layer="1328" to-port="0" />
		<edge from-layer="1324" from-port="0" to-layer="1328" to-port="1" />
		<edge from-layer="1325" from-port="0" to-layer="1328" to-port="2" />
		<edge from-layer="1326" from-port="0" to-layer="1328" to-port="3" />
		<edge from-layer="1327" from-port="0" to-layer="1328" to-port="4" />
		<edge from-layer="1328" from-port="5" to-layer="1333" to-port="0" />
		<edge from-layer="1329" from-port="0" to-layer="1330" to-port="0" />
		<edge from-layer="1330" from-port="1" to-layer="1332" to-port="0" />
		<edge from-layer="1331" from-port="0" to-layer="1332" to-port="1" />
		<edge from-layer="1332" from-port="2" to-layer="1333" to-port="1" />
		<edge from-layer="1333" from-port="2" to-layer="1335" to-port="0" />
		<edge from-layer="1334" from-port="0" to-layer="1335" to-port="1" />
		<edge from-layer="1335" from-port="2" to-layer="1340" to-port="0" />
		<edge from-layer="1336" from-port="0" to-layer="1340" to-port="1" />
		<edge from-layer="1337" from-port="0" to-layer="1340" to-port="2" />
		<edge from-layer="1338" from-port="0" to-layer="1340" to-port="3" />
		<edge from-layer="1339" from-port="0" to-layer="1340" to-port="4" />
		<edge from-layer="1340" from-port="5" to-layer="1341" to-port="0" />
		<edge from-layer="1340" from-port="5" to-layer="1347" to-port="0" />
		<edge from-layer="1341" from-port="1" to-layer="1346" to-port="0" />
		<edge from-layer="1342" from-port="0" to-layer="1346" to-port="1" />
		<edge from-layer="1343" from-port="0" to-layer="1346" to-port="2" />
		<edge from-layer="1344" from-port="0" to-layer="1346" to-port="3" />
		<edge from-layer="1345" from-port="0" to-layer="1346" to-port="4" />
		<edge from-layer="1346" from-port="5" to-layer="1347" to-port="1" />
		<edge from-layer="1347" from-port="2" to-layer="1352" to-port="0" />
		<edge from-layer="1348" from-port="0" to-layer="1352" to-port="1" />
		<edge from-layer="1349" from-port="0" to-layer="1352" to-port="2" />
		<edge from-layer="1350" from-port="0" to-layer="1352" to-port="3" />
		<edge from-layer="1351" from-port="0" to-layer="1352" to-port="4" />
		<edge from-layer="1352" from-port="5" to-layer="1359" to-port="0" />
		<edge from-layer="1353" from-port="0" to-layer="1354" to-port="0" />
		<edge from-layer="1354" from-port="1" to-layer="1356" to-port="0" />
		<edge from-layer="1355" from-port="0" to-layer="1356" to-port="1" />
		<edge from-layer="1356" from-port="2" to-layer="1358" to-port="0" />
		<edge from-layer="1357" from-port="0" to-layer="1358" to-port="1" />
		<edge from-layer="1358" from-port="2" to-layer="1359" to-port="1" />
		<edge from-layer="1359" from-port="2" to-layer="1361" to-port="0" />
		<edge from-layer="1360" from-port="0" to-layer="1361" to-port="1" />
		<edge from-layer="1361" from-port="2" to-layer="1366" to-port="0" />
		<edge from-layer="1362" from-port="0" to-layer="1366" to-port="1" />
		<edge from-layer="1363" from-port="0" to-layer="1366" to-port="2" />
		<edge from-layer="1364" from-port="0" to-layer="1366" to-port="3" />
		<edge from-layer="1365" from-port="0" to-layer="1366" to-port="4" />
		<edge from-layer="1366" from-port="5" to-layer="1367" to-port="0" />
		<edge from-layer="1366" from-port="5" to-layer="1373" to-port="0" />
		<edge from-layer="1367" from-port="1" to-layer="1372" to-port="0" />
		<edge from-layer="1368" from-port="0" to-layer="1372" to-port="1" />
		<edge from-layer="1369" from-port="0" to-layer="1372" to-port="2" />
		<edge from-layer="1370" from-port="0" to-layer="1372" to-port="3" />
		<edge from-layer="1371" from-port="0" to-layer="1372" to-port="4" />
		<edge from-layer="1372" from-port="5" to-layer="1373" to-port="1" />
		<edge from-layer="1373" from-port="2" to-layer="1378" to-port="0" />
		<edge from-layer="1374" from-port="0" to-layer="1378" to-port="1" />
		<edge from-layer="1375" from-port="0" to-layer="1378" to-port="2" />
		<edge from-layer="1376" from-port="0" to-layer="1378" to-port="3" />
		<edge from-layer="1377" from-port="0" to-layer="1378" to-port="4" />
		<edge from-layer="1378" from-port="5" to-layer="1380" to-port="0" />
		<edge from-layer="1378" from-port="5" to-layer="1428" to-port="1" />
		<edge from-layer="1379" from-port="0" to-layer="1380" to-port="1" />
		<edge from-layer="1380" from-port="2" to-layer="1385" to-port="0" />
		<edge from-layer="1381" from-port="0" to-layer="1385" to-port="1" />
		<edge from-layer="1382" from-port="0" to-layer="1385" to-port="2" />
		<edge from-layer="1383" from-port="0" to-layer="1385" to-port="3" />
		<edge from-layer="1384" from-port="0" to-layer="1385" to-port="4" />
		<edge from-layer="1385" from-port="5" to-layer="1390" to-port="0" />
		<edge from-layer="1386" from-port="0" to-layer="1387" to-port="0" />
		<edge from-layer="1387" from-port="1" to-layer="1389" to-port="0" />
		<edge from-layer="1388" from-port="0" to-layer="1389" to-port="1" />
		<edge from-layer="1389" from-port="2" to-layer="1390" to-port="1" />
		<edge from-layer="1390" from-port="2" to-layer="1392" to-port="0" />
		<edge from-layer="1391" from-port="0" to-layer="1392" to-port="1" />
		<edge from-layer="1392" from-port="2" to-layer="1397" to-port="0" />
		<edge from-layer="1393" from-port="0" to-layer="1397" to-port="1" />
		<edge from-layer="1394" from-port="0" to-layer="1397" to-port="2" />
		<edge from-layer="1395" from-port="0" to-layer="1397" to-port="3" />
		<edge from-layer="1396" from-port="0" to-layer="1397" to-port="4" />
		<edge from-layer="1397" from-port="5" to-layer="1398" to-port="0" />
		<edge from-layer="1397" from-port="5" to-layer="1404" to-port="0" />
		<edge from-layer="1398" from-port="1" to-layer="1403" to-port="0" />
		<edge from-layer="1399" from-port="0" to-layer="1403" to-port="1" />
		<edge from-layer="1400" from-port="0" to-layer="1403" to-port="2" />
		<edge from-layer="1401" from-port="0" to-layer="1403" to-port="3" />
		<edge from-layer="1402" from-port="0" to-layer="1403" to-port="4" />
		<edge from-layer="1403" from-port="5" to-layer="1404" to-port="1" />
		<edge from-layer="1404" from-port="2" to-layer="1409" to-port="0" />
		<edge from-layer="1405" from-port="0" to-layer="1409" to-port="1" />
		<edge from-layer="1406" from-port="0" to-layer="1409" to-port="2" />
		<edge from-layer="1407" from-port="0" to-layer="1409" to-port="3" />
		<edge from-layer="1408" from-port="0" to-layer="1409" to-port="4" />
		<edge from-layer="1409" from-port="5" to-layer="1414" to-port="0" />
		<edge from-layer="1410" from-port="0" to-layer="1411" to-port="0" />
		<edge from-layer="1411" from-port="1" to-layer="1413" to-port="0" />
		<edge from-layer="1412" from-port="0" to-layer="1413" to-port="1" />
		<edge from-layer="1413" from-port="2" to-layer="1414" to-port="1" />
		<edge from-layer="1414" from-port="2" to-layer="1416" to-port="0" />
		<edge from-layer="1415" from-port="0" to-layer="1416" to-port="1" />
		<edge from-layer="1416" from-port="2" to-layer="1421" to-port="0" />
		<edge from-layer="1417" from-port="0" to-layer="1421" to-port="1" />
		<edge from-layer="1418" from-port="0" to-layer="1421" to-port="2" />
		<edge from-layer="1419" from-port="0" to-layer="1421" to-port="3" />
		<edge from-layer="1420" from-port="0" to-layer="1421" to-port="4" />
		<edge from-layer="1421" from-port="5" to-layer="1422" to-port="0" />
		<edge from-layer="1422" from-port="1" to-layer="1427" to-port="0" />
		<edge from-layer="1423" from-port="0" to-layer="1427" to-port="1" />
		<edge from-layer="1424" from-port="0" to-layer="1427" to-port="2" />
		<edge from-layer="1425" from-port="0" to-layer="1427" to-port="3" />
		<edge from-layer="1426" from-port="0" to-layer="1427" to-port="4" />
		<edge from-layer="1427" from-port="5" to-layer="1428" to-port="0" />
		<edge from-layer="1428" from-port="2" to-layer="1433" to-port="0" />
		<edge from-layer="1429" from-port="0" to-layer="1433" to-port="1" />
		<edge from-layer="1430" from-port="0" to-layer="1433" to-port="2" />
		<edge from-layer="1431" from-port="0" to-layer="1433" to-port="3" />
		<edge from-layer="1432" from-port="0" to-layer="1433" to-port="4" />
		<edge from-layer="1433" from-port="5" to-layer="1438" to-port="0" />
		<edge from-layer="1434" from-port="0" to-layer="1435" to-port="0" />
		<edge from-layer="1435" from-port="1" to-layer="1437" to-port="0" />
		<edge from-layer="1436" from-port="0" to-layer="1437" to-port="1" />
		<edge from-layer="1437" from-port="2" to-layer="1438" to-port="1" />
		<edge from-layer="1438" from-port="2" to-layer="1440" to-port="0" />
		<edge from-layer="1439" from-port="0" to-layer="1440" to-port="1" />
		<edge from-layer="1440" from-port="2" to-layer="1445" to-port="0" />
		<edge from-layer="1441" from-port="0" to-layer="1445" to-port="1" />
		<edge from-layer="1442" from-port="0" to-layer="1445" to-port="2" />
		<edge from-layer="1443" from-port="0" to-layer="1445" to-port="3" />
		<edge from-layer="1444" from-port="0" to-layer="1445" to-port="4" />
		<edge from-layer="1445" from-port="5" to-layer="1563" to-port="1" />
		<edge from-layer="1445" from-port="5" to-layer="1450" to-port="0" />
		<edge from-layer="1446" from-port="0" to-layer="1447" to-port="0" />
		<edge from-layer="1447" from-port="1" to-layer="1449" to-port="0" />
		<edge from-layer="1448" from-port="0" to-layer="1449" to-port="1" />
		<edge from-layer="1449" from-port="2" to-layer="1450" to-port="1" />
		<edge from-layer="1450" from-port="2" to-layer="1452" to-port="0" />
		<edge from-layer="1451" from-port="0" to-layer="1452" to-port="1" />
		<edge from-layer="1452" from-port="2" to-layer="1457" to-port="0" />
		<edge from-layer="1453" from-port="0" to-layer="1457" to-port="1" />
		<edge from-layer="1454" from-port="0" to-layer="1457" to-port="2" />
		<edge from-layer="1455" from-port="0" to-layer="1457" to-port="3" />
		<edge from-layer="1456" from-port="0" to-layer="1457" to-port="4" />
		<edge from-layer="1457" from-port="5" to-layer="1458" to-port="0" />
		<edge from-layer="1457" from-port="5" to-layer="1464" to-port="0" />
		<edge from-layer="1458" from-port="1" to-layer="1463" to-port="0" />
		<edge from-layer="1459" from-port="0" to-layer="1463" to-port="1" />
		<edge from-layer="1460" from-port="0" to-layer="1463" to-port="2" />
		<edge from-layer="1461" from-port="0" to-layer="1463" to-port="3" />
		<edge from-layer="1462" from-port="0" to-layer="1463" to-port="4" />
		<edge from-layer="1463" from-port="5" to-layer="1464" to-port="1" />
		<edge from-layer="1464" from-port="2" to-layer="1469" to-port="0" />
		<edge from-layer="1465" from-port="0" to-layer="1469" to-port="1" />
		<edge from-layer="1466" from-port="0" to-layer="1469" to-port="2" />
		<edge from-layer="1467" from-port="0" to-layer="1469" to-port="3" />
		<edge from-layer="1468" from-port="0" to-layer="1469" to-port="4" />
		<edge from-layer="1469" from-port="5" to-layer="1476" to-port="0" />
		<edge from-layer="1470" from-port="0" to-layer="1471" to-port="0" />
		<edge from-layer="1471" from-port="1" to-layer="1473" to-port="0" />
		<edge from-layer="1472" from-port="0" to-layer="1473" to-port="1" />
		<edge from-layer="1473" from-port="2" to-layer="1475" to-port="0" />
		<edge from-layer="1474" from-port="0" to-layer="1475" to-port="1" />
		<edge from-layer="1475" from-port="2" to-layer="1476" to-port="1" />
		<edge from-layer="1476" from-port="2" to-layer="1478" to-port="0" />
		<edge from-layer="1477" from-port="0" to-layer="1478" to-port="1" />
		<edge from-layer="1478" from-port="2" to-layer="1483" to-port="0" />
		<edge from-layer="1479" from-port="0" to-layer="1483" to-port="1" />
		<edge from-layer="1480" from-port="0" to-layer="1483" to-port="2" />
		<edge from-layer="1481" from-port="0" to-layer="1483" to-port="3" />
		<edge from-layer="1482" from-port="0" to-layer="1483" to-port="4" />
		<edge from-layer="1483" from-port="5" to-layer="1484" to-port="0" />
		<edge from-layer="1483" from-port="5" to-layer="1490" to-port="0" />
		<edge from-layer="1484" from-port="1" to-layer="1489" to-port="0" />
		<edge from-layer="1485" from-port="0" to-layer="1489" to-port="1" />
		<edge from-layer="1486" from-port="0" to-layer="1489" to-port="2" />
		<edge from-layer="1487" from-port="0" to-layer="1489" to-port="3" />
		<edge from-layer="1488" from-port="0" to-layer="1489" to-port="4" />
		<edge from-layer="1489" from-port="5" to-layer="1490" to-port="1" />
		<edge from-layer="1490" from-port="2" to-layer="1495" to-port="0" />
		<edge from-layer="1491" from-port="0" to-layer="1495" to-port="1" />
		<edge from-layer="1492" from-port="0" to-layer="1495" to-port="2" />
		<edge from-layer="1493" from-port="0" to-layer="1495" to-port="3" />
		<edge from-layer="1494" from-port="0" to-layer="1495" to-port="4" />
		<edge from-layer="1495" from-port="5" to-layer="1545" to-port="1" />
		<edge from-layer="1495" from-port="5" to-layer="1497" to-port="0" />
		<edge from-layer="1496" from-port="0" to-layer="1497" to-port="1" />
		<edge from-layer="1497" from-port="2" to-layer="1502" to-port="0" />
		<edge from-layer="1498" from-port="0" to-layer="1502" to-port="1" />
		<edge from-layer="1499" from-port="0" to-layer="1502" to-port="2" />
		<edge from-layer="1500" from-port="0" to-layer="1502" to-port="3" />
		<edge from-layer="1501" from-port="0" to-layer="1502" to-port="4" />
		<edge from-layer="1502" from-port="5" to-layer="1507" to-port="0" />
		<edge from-layer="1503" from-port="0" to-layer="1504" to-port="0" />
		<edge from-layer="1504" from-port="1" to-layer="1506" to-port="0" />
		<edge from-layer="1505" from-port="0" to-layer="1506" to-port="1" />
		<edge from-layer="1506" from-port="2" to-layer="1507" to-port="1" />
		<edge from-layer="1507" from-port="2" to-layer="1509" to-port="0" />
		<edge from-layer="1508" from-port="0" to-layer="1509" to-port="1" />
		<edge from-layer="1509" from-port="2" to-layer="1514" to-port="0" />
		<edge from-layer="1510" from-port="0" to-layer="1514" to-port="1" />
		<edge from-layer="1511" from-port="0" to-layer="1514" to-port="2" />
		<edge from-layer="1512" from-port="0" to-layer="1514" to-port="3" />
		<edge from-layer="1513" from-port="0" to-layer="1514" to-port="4" />
		<edge from-layer="1514" from-port="5" to-layer="1515" to-port="0" />
		<edge from-layer="1514" from-port="5" to-layer="1521" to-port="0" />
		<edge from-layer="1515" from-port="1" to-layer="1520" to-port="0" />
		<edge from-layer="1516" from-port="0" to-layer="1520" to-port="1" />
		<edge from-layer="1517" from-port="0" to-layer="1520" to-port="2" />
		<edge from-layer="1518" from-port="0" to-layer="1520" to-port="3" />
		<edge from-layer="1519" from-port="0" to-layer="1520" to-port="4" />
		<edge from-layer="1520" from-port="5" to-layer="1521" to-port="1" />
		<edge from-layer="1521" from-port="2" to-layer="1526" to-port="0" />
		<edge from-layer="1522" from-port="0" to-layer="1526" to-port="1" />
		<edge from-layer="1523" from-port="0" to-layer="1526" to-port="2" />
		<edge from-layer="1524" from-port="0" to-layer="1526" to-port="3" />
		<edge from-layer="1525" from-port="0" to-layer="1526" to-port="4" />
		<edge from-layer="1526" from-port="5" to-layer="1531" to-port="0" />
		<edge from-layer="1527" from-port="0" to-layer="1528" to-port="0" />
		<edge from-layer="1528" from-port="1" to-layer="1530" to-port="0" />
		<edge from-layer="1529" from-port="0" to-layer="1530" to-port="1" />
		<edge from-layer="1530" from-port="2" to-layer="1531" to-port="1" />
		<edge from-layer="1531" from-port="2" to-layer="1533" to-port="0" />
		<edge from-layer="1532" from-port="0" to-layer="1533" to-port="1" />
		<edge from-layer="1533" from-port="2" to-layer="1538" to-port="0" />
		<edge from-layer="1534" from-port="0" to-layer="1538" to-port="1" />
		<edge from-layer="1535" from-port="0" to-layer="1538" to-port="2" />
		<edge from-layer="1536" from-port="0" to-layer="1538" to-port="3" />
		<edge from-layer="1537" from-port="0" to-layer="1538" to-port="4" />
		<edge from-layer="1538" from-port="5" to-layer="1539" to-port="0" />
		<edge from-layer="1539" from-port="1" to-layer="1544" to-port="0" />
		<edge from-layer="1540" from-port="0" to-layer="1544" to-port="1" />
		<edge from-layer="1541" from-port="0" to-layer="1544" to-port="2" />
		<edge from-layer="1542" from-port="0" to-layer="1544" to-port="3" />
		<edge from-layer="1543" from-port="0" to-layer="1544" to-port="4" />
		<edge from-layer="1544" from-port="5" to-layer="1545" to-port="0" />
		<edge from-layer="1545" from-port="2" to-layer="1550" to-port="0" />
		<edge from-layer="1546" from-port="0" to-layer="1550" to-port="1" />
		<edge from-layer="1547" from-port="0" to-layer="1550" to-port="2" />
		<edge from-layer="1548" from-port="0" to-layer="1550" to-port="3" />
		<edge from-layer="1549" from-port="0" to-layer="1550" to-port="4" />
		<edge from-layer="1550" from-port="5" to-layer="1555" to-port="0" />
		<edge from-layer="1551" from-port="0" to-layer="1552" to-port="0" />
		<edge from-layer="1552" from-port="1" to-layer="1554" to-port="0" />
		<edge from-layer="1553" from-port="0" to-layer="1554" to-port="1" />
		<edge from-layer="1554" from-port="2" to-layer="1555" to-port="1" />
		<edge from-layer="1555" from-port="2" to-layer="1557" to-port="0" />
		<edge from-layer="1556" from-port="0" to-layer="1557" to-port="1" />
		<edge from-layer="1557" from-port="2" to-layer="1562" to-port="0" />
		<edge from-layer="1558" from-port="0" to-layer="1562" to-port="1" />
		<edge from-layer="1559" from-port="0" to-layer="1562" to-port="2" />
		<edge from-layer="1560" from-port="0" to-layer="1562" to-port="3" />
		<edge from-layer="1561" from-port="0" to-layer="1562" to-port="4" />
		<edge from-layer="1562" from-port="5" to-layer="1563" to-port="0" />
		<edge from-layer="1563" from-port="2" to-layer="1568" to-port="0" />
		<edge from-layer="1564" from-port="0" to-layer="1568" to-port="1" />
		<edge from-layer="1565" from-port="0" to-layer="1568" to-port="2" />
		<edge from-layer="1566" from-port="0" to-layer="1568" to-port="3" />
		<edge from-layer="1567" from-port="0" to-layer="1568" to-port="4" />
		<edge from-layer="1568" from-port="5" to-layer="1573" to-port="0" />
		<edge from-layer="1568" from-port="5" to-layer="1686" to-port="1" />
		<edge from-layer="1569" from-port="0" to-layer="1570" to-port="0" />
		<edge from-layer="1570" from-port="1" to-layer="1572" to-port="0" />
		<edge from-layer="1571" from-port="0" to-layer="1572" to-port="1" />
		<edge from-layer="1572" from-port="2" to-layer="1573" to-port="1" />
		<edge from-layer="1573" from-port="2" to-layer="1575" to-port="0" />
		<edge from-layer="1574" from-port="0" to-layer="1575" to-port="1" />
		<edge from-layer="1575" from-port="2" to-layer="1580" to-port="0" />
		<edge from-layer="1576" from-port="0" to-layer="1580" to-port="1" />
		<edge from-layer="1577" from-port="0" to-layer="1580" to-port="2" />
		<edge from-layer="1578" from-port="0" to-layer="1580" to-port="3" />
		<edge from-layer="1579" from-port="0" to-layer="1580" to-port="4" />
		<edge from-layer="1580" from-port="5" to-layer="1581" to-port="0" />
		<edge from-layer="1580" from-port="5" to-layer="1587" to-port="0" />
		<edge from-layer="1581" from-port="1" to-layer="1586" to-port="0" />
		<edge from-layer="1582" from-port="0" to-layer="1586" to-port="1" />
		<edge from-layer="1583" from-port="0" to-layer="1586" to-port="2" />
		<edge from-layer="1584" from-port="0" to-layer="1586" to-port="3" />
		<edge from-layer="1585" from-port="0" to-layer="1586" to-port="4" />
		<edge from-layer="1586" from-port="5" to-layer="1587" to-port="1" />
		<edge from-layer="1587" from-port="2" to-layer="1592" to-port="0" />
		<edge from-layer="1588" from-port="0" to-layer="1592" to-port="1" />
		<edge from-layer="1589" from-port="0" to-layer="1592" to-port="2" />
		<edge from-layer="1590" from-port="0" to-layer="1592" to-port="3" />
		<edge from-layer="1591" from-port="0" to-layer="1592" to-port="4" />
		<edge from-layer="1592" from-port="5" to-layer="1599" to-port="0" />
		<edge from-layer="1593" from-port="0" to-layer="1594" to-port="0" />
		<edge from-layer="1594" from-port="1" to-layer="1596" to-port="0" />
		<edge from-layer="1595" from-port="0" to-layer="1596" to-port="1" />
		<edge from-layer="1596" from-port="2" to-layer="1598" to-port="0" />
		<edge from-layer="1597" from-port="0" to-layer="1598" to-port="1" />
		<edge from-layer="1598" from-port="2" to-layer="1599" to-port="1" />
		<edge from-layer="1599" from-port="2" to-layer="1601" to-port="0" />
		<edge from-layer="1600" from-port="0" to-layer="1601" to-port="1" />
		<edge from-layer="1601" from-port="2" to-layer="1606" to-port="0" />
		<edge from-layer="1602" from-port="0" to-layer="1606" to-port="1" />
		<edge from-layer="1603" from-port="0" to-layer="1606" to-port="2" />
		<edge from-layer="1604" from-port="0" to-layer="1606" to-port="3" />
		<edge from-layer="1605" from-port="0" to-layer="1606" to-port="4" />
		<edge from-layer="1606" from-port="5" to-layer="1607" to-port="0" />
		<edge from-layer="1606" from-port="5" to-layer="1613" to-port="0" />
		<edge from-layer="1607" from-port="1" to-layer="1612" to-port="0" />
		<edge from-layer="1608" from-port="0" to-layer="1612" to-port="1" />
		<edge from-layer="1609" from-port="0" to-layer="1612" to-port="2" />
		<edge from-layer="1610" from-port="0" to-layer="1612" to-port="3" />
		<edge from-layer="1611" from-port="0" to-layer="1612" to-port="4" />
		<edge from-layer="1612" from-port="5" to-layer="1613" to-port="1" />
		<edge from-layer="1613" from-port="2" to-layer="1618" to-port="0" />
		<edge from-layer="1614" from-port="0" to-layer="1618" to-port="1" />
		<edge from-layer="1615" from-port="0" to-layer="1618" to-port="2" />
		<edge from-layer="1616" from-port="0" to-layer="1618" to-port="3" />
		<edge from-layer="1617" from-port="0" to-layer="1618" to-port="4" />
		<edge from-layer="1618" from-port="5" to-layer="1668" to-port="1" />
		<edge from-layer="1618" from-port="5" to-layer="1620" to-port="0" />
		<edge from-layer="1619" from-port="0" to-layer="1620" to-port="1" />
		<edge from-layer="1620" from-port="2" to-layer="1625" to-port="0" />
		<edge from-layer="1621" from-port="0" to-layer="1625" to-port="1" />
		<edge from-layer="1622" from-port="0" to-layer="1625" to-port="2" />
		<edge from-layer="1623" from-port="0" to-layer="1625" to-port="3" />
		<edge from-layer="1624" from-port="0" to-layer="1625" to-port="4" />
		<edge from-layer="1625" from-port="5" to-layer="1630" to-port="0" />
		<edge from-layer="1626" from-port="0" to-layer="1627" to-port="0" />
		<edge from-layer="1627" from-port="1" to-layer="1629" to-port="0" />
		<edge from-layer="1628" from-port="0" to-layer="1629" to-port="1" />
		<edge from-layer="1629" from-port="2" to-layer="1630" to-port="1" />
		<edge from-layer="1630" from-port="2" to-layer="1632" to-port="0" />
		<edge from-layer="1631" from-port="0" to-layer="1632" to-port="1" />
		<edge from-layer="1632" from-port="2" to-layer="1637" to-port="0" />
		<edge from-layer="1633" from-port="0" to-layer="1637" to-port="1" />
		<edge from-layer="1634" from-port="0" to-layer="1637" to-port="2" />
		<edge from-layer="1635" from-port="0" to-layer="1637" to-port="3" />
		<edge from-layer="1636" from-port="0" to-layer="1637" to-port="4" />
		<edge from-layer="1637" from-port="5" to-layer="1644" to-port="0" />
		<edge from-layer="1637" from-port="5" to-layer="1638" to-port="0" />
		<edge from-layer="1638" from-port="1" to-layer="1643" to-port="0" />
		<edge from-layer="1639" from-port="0" to-layer="1643" to-port="1" />
		<edge from-layer="1640" from-port="0" to-layer="1643" to-port="2" />
		<edge from-layer="1641" from-port="0" to-layer="1643" to-port="3" />
		<edge from-layer="1642" from-port="0" to-layer="1643" to-port="4" />
		<edge from-layer="1643" from-port="5" to-layer="1644" to-port="1" />
		<edge from-layer="1644" from-port="2" to-layer="1649" to-port="0" />
		<edge from-layer="1645" from-port="0" to-layer="1649" to-port="1" />
		<edge from-layer="1646" from-port="0" to-layer="1649" to-port="2" />
		<edge from-layer="1647" from-port="0" to-layer="1649" to-port="3" />
		<edge from-layer="1648" from-port="0" to-layer="1649" to-port="4" />
		<edge from-layer="1649" from-port="5" to-layer="1654" to-port="0" />
		<edge from-layer="1650" from-port="0" to-layer="1651" to-port="0" />
		<edge from-layer="1651" from-port="1" to-layer="1653" to-port="0" />
		<edge from-layer="1652" from-port="0" to-layer="1653" to-port="1" />
		<edge from-layer="1653" from-port="2" to-layer="1654" to-port="1" />
		<edge from-layer="1654" from-port="2" to-layer="1656" to-port="0" />
		<edge from-layer="1655" from-port="0" to-layer="1656" to-port="1" />
		<edge from-layer="1656" from-port="2" to-layer="1661" to-port="0" />
		<edge from-layer="1657" from-port="0" to-layer="1661" to-port="1" />
		<edge from-layer="1658" from-port="0" to-layer="1661" to-port="2" />
		<edge from-layer="1659" from-port="0" to-layer="1661" to-port="3" />
		<edge from-layer="1660" from-port="0" to-layer="1661" to-port="4" />
		<edge from-layer="1661" from-port="5" to-layer="1662" to-port="0" />
		<edge from-layer="1662" from-port="1" to-layer="1667" to-port="0" />
		<edge from-layer="1663" from-port="0" to-layer="1667" to-port="1" />
		<edge from-layer="1664" from-port="0" to-layer="1667" to-port="2" />
		<edge from-layer="1665" from-port="0" to-layer="1667" to-port="3" />
		<edge from-layer="1666" from-port="0" to-layer="1667" to-port="4" />
		<edge from-layer="1667" from-port="5" to-layer="1668" to-port="0" />
		<edge from-layer="1668" from-port="2" to-layer="1673" to-port="0" />
		<edge from-layer="1669" from-port="0" to-layer="1673" to-port="1" />
		<edge from-layer="1670" from-port="0" to-layer="1673" to-port="2" />
		<edge from-layer="1671" from-port="0" to-layer="1673" to-port="3" />
		<edge from-layer="1672" from-port="0" to-layer="1673" to-port="4" />
		<edge from-layer="1673" from-port="5" to-layer="1678" to-port="0" />
		<edge from-layer="1674" from-port="0" to-layer="1675" to-port="0" />
		<edge from-layer="1675" from-port="1" to-layer="1677" to-port="0" />
		<edge from-layer="1676" from-port="0" to-layer="1677" to-port="1" />
		<edge from-layer="1677" from-port="2" to-layer="1678" to-port="1" />
		<edge from-layer="1678" from-port="2" to-layer="1680" to-port="0" />
		<edge from-layer="1679" from-port="0" to-layer="1680" to-port="1" />
		<edge from-layer="1680" from-port="2" to-layer="1685" to-port="0" />
		<edge from-layer="1681" from-port="0" to-layer="1685" to-port="1" />
		<edge from-layer="1682" from-port="0" to-layer="1685" to-port="2" />
		<edge from-layer="1683" from-port="0" to-layer="1685" to-port="3" />
		<edge from-layer="1684" from-port="0" to-layer="1685" to-port="4" />
		<edge from-layer="1685" from-port="5" to-layer="1686" to-port="0" />
		<edge from-layer="1686" from-port="2" to-layer="1691" to-port="0" />
		<edge from-layer="1687" from-port="0" to-layer="1691" to-port="1" />
		<edge from-layer="1688" from-port="0" to-layer="1691" to-port="2" />
		<edge from-layer="1689" from-port="0" to-layer="1691" to-port="3" />
		<edge from-layer="1690" from-port="0" to-layer="1691" to-port="4" />
		<edge from-layer="1691" from-port="5" to-layer="1809" to-port="1" />
		<edge from-layer="1691" from-port="5" to-layer="1696" to-port="0" />
		<edge from-layer="1692" from-port="0" to-layer="1693" to-port="0" />
		<edge from-layer="1693" from-port="1" to-layer="1695" to-port="0" />
		<edge from-layer="1694" from-port="0" to-layer="1695" to-port="1" />
		<edge from-layer="1695" from-port="2" to-layer="1696" to-port="1" />
		<edge from-layer="1696" from-port="2" to-layer="1698" to-port="0" />
		<edge from-layer="1697" from-port="0" to-layer="1698" to-port="1" />
		<edge from-layer="1698" from-port="2" to-layer="1703" to-port="0" />
		<edge from-layer="1699" from-port="0" to-layer="1703" to-port="1" />
		<edge from-layer="1700" from-port="0" to-layer="1703" to-port="2" />
		<edge from-layer="1701" from-port="0" to-layer="1703" to-port="3" />
		<edge from-layer="1702" from-port="0" to-layer="1703" to-port="4" />
		<edge from-layer="1703" from-port="5" to-layer="1704" to-port="0" />
		<edge from-layer="1703" from-port="5" to-layer="1710" to-port="0" />
		<edge from-layer="1704" from-port="1" to-layer="1709" to-port="0" />
		<edge from-layer="1705" from-port="0" to-layer="1709" to-port="1" />
		<edge from-layer="1706" from-port="0" to-layer="1709" to-port="2" />
		<edge from-layer="1707" from-port="0" to-layer="1709" to-port="3" />
		<edge from-layer="1708" from-port="0" to-layer="1709" to-port="4" />
		<edge from-layer="1709" from-port="5" to-layer="1710" to-port="1" />
		<edge from-layer="1710" from-port="2" to-layer="1715" to-port="0" />
		<edge from-layer="1711" from-port="0" to-layer="1715" to-port="1" />
		<edge from-layer="1712" from-port="0" to-layer="1715" to-port="2" />
		<edge from-layer="1713" from-port="0" to-layer="1715" to-port="3" />
		<edge from-layer="1714" from-port="0" to-layer="1715" to-port="4" />
		<edge from-layer="1715" from-port="5" to-layer="1722" to-port="0" />
		<edge from-layer="1716" from-port="0" to-layer="1717" to-port="0" />
		<edge from-layer="1717" from-port="1" to-layer="1719" to-port="0" />
		<edge from-layer="1718" from-port="0" to-layer="1719" to-port="1" />
		<edge from-layer="1719" from-port="2" to-layer="1721" to-port="0" />
		<edge from-layer="1720" from-port="0" to-layer="1721" to-port="1" />
		<edge from-layer="1721" from-port="2" to-layer="1722" to-port="1" />
		<edge from-layer="1722" from-port="2" to-layer="1724" to-port="0" />
		<edge from-layer="1723" from-port="0" to-layer="1724" to-port="1" />
		<edge from-layer="1724" from-port="2" to-layer="1729" to-port="0" />
		<edge from-layer="1725" from-port="0" to-layer="1729" to-port="1" />
		<edge from-layer="1726" from-port="0" to-layer="1729" to-port="2" />
		<edge from-layer="1727" from-port="0" to-layer="1729" to-port="3" />
		<edge from-layer="1728" from-port="0" to-layer="1729" to-port="4" />
		<edge from-layer="1729" from-port="5" to-layer="1730" to-port="0" />
		<edge from-layer="1729" from-port="5" to-layer="1736" to-port="0" />
		<edge from-layer="1730" from-port="1" to-layer="1735" to-port="0" />
		<edge from-layer="1731" from-port="0" to-layer="1735" to-port="1" />
		<edge from-layer="1732" from-port="0" to-layer="1735" to-port="2" />
		<edge from-layer="1733" from-port="0" to-layer="1735" to-port="3" />
		<edge from-layer="1734" from-port="0" to-layer="1735" to-port="4" />
		<edge from-layer="1735" from-port="5" to-layer="1736" to-port="1" />
		<edge from-layer="1736" from-port="2" to-layer="1741" to-port="0" />
		<edge from-layer="1737" from-port="0" to-layer="1741" to-port="1" />
		<edge from-layer="1738" from-port="0" to-layer="1741" to-port="2" />
		<edge from-layer="1739" from-port="0" to-layer="1741" to-port="3" />
		<edge from-layer="1740" from-port="0" to-layer="1741" to-port="4" />
		<edge from-layer="1741" from-port="5" to-layer="1743" to-port="0" />
		<edge from-layer="1741" from-port="5" to-layer="1791" to-port="1" />
		<edge from-layer="1742" from-port="0" to-layer="1743" to-port="1" />
		<edge from-layer="1743" from-port="2" to-layer="1748" to-port="0" />
		<edge from-layer="1744" from-port="0" to-layer="1748" to-port="1" />
		<edge from-layer="1745" from-port="0" to-layer="1748" to-port="2" />
		<edge from-layer="1746" from-port="0" to-layer="1748" to-port="3" />
		<edge from-layer="1747" from-port="0" to-layer="1748" to-port="4" />
		<edge from-layer="1748" from-port="5" to-layer="1753" to-port="0" />
		<edge from-layer="1749" from-port="0" to-layer="1750" to-port="0" />
		<edge from-layer="1750" from-port="1" to-layer="1752" to-port="0" />
		<edge from-layer="1751" from-port="0" to-layer="1752" to-port="1" />
		<edge from-layer="1752" from-port="2" to-layer="1753" to-port="1" />
		<edge from-layer="1753" from-port="2" to-layer="1755" to-port="0" />
		<edge from-layer="1754" from-port="0" to-layer="1755" to-port="1" />
		<edge from-layer="1755" from-port="2" to-layer="1760" to-port="0" />
		<edge from-layer="1756" from-port="0" to-layer="1760" to-port="1" />
		<edge from-layer="1757" from-port="0" to-layer="1760" to-port="2" />
		<edge from-layer="1758" from-port="0" to-layer="1760" to-port="3" />
		<edge from-layer="1759" from-port="0" to-layer="1760" to-port="4" />
		<edge from-layer="1760" from-port="5" to-layer="1761" to-port="0" />
		<edge from-layer="1760" from-port="5" to-layer="1767" to-port="0" />
		<edge from-layer="1761" from-port="1" to-layer="1766" to-port="0" />
		<edge from-layer="1762" from-port="0" to-layer="1766" to-port="1" />
		<edge from-layer="1763" from-port="0" to-layer="1766" to-port="2" />
		<edge from-layer="1764" from-port="0" to-layer="1766" to-port="3" />
		<edge from-layer="1765" from-port="0" to-layer="1766" to-port="4" />
		<edge from-layer="1766" from-port="5" to-layer="1767" to-port="1" />
		<edge from-layer="1767" from-port="2" to-layer="1772" to-port="0" />
		<edge from-layer="1768" from-port="0" to-layer="1772" to-port="1" />
		<edge from-layer="1769" from-port="0" to-layer="1772" to-port="2" />
		<edge from-layer="1770" from-port="0" to-layer="1772" to-port="3" />
		<edge from-layer="1771" from-port="0" to-layer="1772" to-port="4" />
		<edge from-layer="1772" from-port="5" to-layer="1777" to-port="0" />
		<edge from-layer="1773" from-port="0" to-layer="1774" to-port="0" />
		<edge from-layer="1774" from-port="1" to-layer="1776" to-port="0" />
		<edge from-layer="1775" from-port="0" to-layer="1776" to-port="1" />
		<edge from-layer="1776" from-port="2" to-layer="1777" to-port="1" />
		<edge from-layer="1777" from-port="2" to-layer="1779" to-port="0" />
		<edge from-layer="1778" from-port="0" to-layer="1779" to-port="1" />
		<edge from-layer="1779" from-port="2" to-layer="1784" to-port="0" />
		<edge from-layer="1780" from-port="0" to-layer="1784" to-port="1" />
		<edge from-layer="1781" from-port="0" to-layer="1784" to-port="2" />
		<edge from-layer="1782" from-port="0" to-layer="1784" to-port="3" />
		<edge from-layer="1783" from-port="0" to-layer="1784" to-port="4" />
		<edge from-layer="1784" from-port="5" to-layer="1785" to-port="0" />
		<edge from-layer="1785" from-port="1" to-layer="1790" to-port="0" />
		<edge from-layer="1786" from-port="0" to-layer="1790" to-port="1" />
		<edge from-layer="1787" from-port="0" to-layer="1790" to-port="2" />
		<edge from-layer="1788" from-port="0" to-layer="1790" to-port="3" />
		<edge from-layer="1789" from-port="0" to-layer="1790" to-port="4" />
		<edge from-layer="1790" from-port="5" to-layer="1791" to-port="0" />
		<edge from-layer="1791" from-port="2" to-layer="1796" to-port="0" />
		<edge from-layer="1792" from-port="0" to-layer="1796" to-port="1" />
		<edge from-layer="1793" from-port="0" to-layer="1796" to-port="2" />
		<edge from-layer="1794" from-port="0" to-layer="1796" to-port="3" />
		<edge from-layer="1795" from-port="0" to-layer="1796" to-port="4" />
		<edge from-layer="1796" from-port="5" to-layer="1801" to-port="0" />
		<edge from-layer="1797" from-port="0" to-layer="1798" to-port="0" />
		<edge from-layer="1798" from-port="1" to-layer="1800" to-port="0" />
		<edge from-layer="1799" from-port="0" to-layer="1800" to-port="1" />
		<edge from-layer="1800" from-port="2" to-layer="1801" to-port="1" />
		<edge from-layer="1801" from-port="2" to-layer="1803" to-port="0" />
		<edge from-layer="1802" from-port="0" to-layer="1803" to-port="1" />
		<edge from-layer="1803" from-port="2" to-layer="1808" to-port="0" />
		<edge from-layer="1804" from-port="0" to-layer="1808" to-port="1" />
		<edge from-layer="1805" from-port="0" to-layer="1808" to-port="2" />
		<edge from-layer="1806" from-port="0" to-layer="1808" to-port="3" />
		<edge from-layer="1807" from-port="0" to-layer="1808" to-port="4" />
		<edge from-layer="1808" from-port="5" to-layer="1809" to-port="0" />
		<edge from-layer="1809" from-port="2" to-layer="1814" to-port="0" />
		<edge from-layer="1810" from-port="0" to-layer="1814" to-port="1" />
		<edge from-layer="1811" from-port="0" to-layer="1814" to-port="2" />
		<edge from-layer="1812" from-port="0" to-layer="1814" to-port="3" />
		<edge from-layer="1813" from-port="0" to-layer="1814" to-port="4" />
		<edge from-layer="1814" from-port="5" to-layer="1819" to-port="0" />
		<edge from-layer="1815" from-port="0" to-layer="1816" to-port="0" />
		<edge from-layer="1816" from-port="1" to-layer="1818" to-port="0" />
		<edge from-layer="1817" from-port="0" to-layer="1818" to-port="1" />
		<edge from-layer="1818" from-port="2" to-layer="1819" to-port="1" />
		<edge from-layer="1819" from-port="2" to-layer="1821" to-port="0" />
		<edge from-layer="1820" from-port="0" to-layer="1821" to-port="1" />
		<edge from-layer="1821" from-port="2" to-layer="1826" to-port="0" />
		<edge from-layer="1822" from-port="0" to-layer="1826" to-port="1" />
		<edge from-layer="1823" from-port="0" to-layer="1826" to-port="2" />
		<edge from-layer="1824" from-port="0" to-layer="1826" to-port="3" />
		<edge from-layer="1825" from-port="0" to-layer="1826" to-port="4" />
		<edge from-layer="1826" from-port="5" to-layer="1827" to-port="0" />
		<edge from-layer="1826" from-port="5" to-layer="1833" to-port="0" />
		<edge from-layer="1827" from-port="1" to-layer="1832" to-port="0" />
		<edge from-layer="1828" from-port="0" to-layer="1832" to-port="1" />
		<edge from-layer="1829" from-port="0" to-layer="1832" to-port="2" />
		<edge from-layer="1830" from-port="0" to-layer="1832" to-port="3" />
		<edge from-layer="1831" from-port="0" to-layer="1832" to-port="4" />
		<edge from-layer="1832" from-port="5" to-layer="1833" to-port="1" />
		<edge from-layer="1833" from-port="2" to-layer="1838" to-port="0" />
		<edge from-layer="1834" from-port="0" to-layer="1838" to-port="1" />
		<edge from-layer="1835" from-port="0" to-layer="1838" to-port="2" />
		<edge from-layer="1836" from-port="0" to-layer="1838" to-port="3" />
		<edge from-layer="1837" from-port="0" to-layer="1838" to-port="4" />
		<edge from-layer="1838" from-port="5" to-layer="1845" to-port="0" />
		<edge from-layer="1839" from-port="0" to-layer="1840" to-port="0" />
		<edge from-layer="1840" from-port="1" to-layer="1842" to-port="0" />
		<edge from-layer="1841" from-port="0" to-layer="1842" to-port="1" />
		<edge from-layer="1842" from-port="2" to-layer="1844" to-port="0" />
		<edge from-layer="1843" from-port="0" to-layer="1844" to-port="1" />
		<edge from-layer="1844" from-port="2" to-layer="1845" to-port="1" />
		<edge from-layer="1845" from-port="2" to-layer="1847" to-port="0" />
		<edge from-layer="1846" from-port="0" to-layer="1847" to-port="1" />
		<edge from-layer="1847" from-port="2" to-layer="1852" to-port="0" />
		<edge from-layer="1848" from-port="0" to-layer="1852" to-port="1" />
		<edge from-layer="1849" from-port="0" to-layer="1852" to-port="2" />
		<edge from-layer="1850" from-port="0" to-layer="1852" to-port="3" />
		<edge from-layer="1851" from-port="0" to-layer="1852" to-port="4" />
		<edge from-layer="1852" from-port="5" to-layer="1853" to-port="0" />
		<edge from-layer="1852" from-port="5" to-layer="1859" to-port="0" />
		<edge from-layer="1853" from-port="1" to-layer="1858" to-port="0" />
		<edge from-layer="1854" from-port="0" to-layer="1858" to-port="1" />
		<edge from-layer="1855" from-port="0" to-layer="1858" to-port="2" />
		<edge from-layer="1856" from-port="0" to-layer="1858" to-port="3" />
		<edge from-layer="1857" from-port="0" to-layer="1858" to-port="4" />
		<edge from-layer="1858" from-port="5" to-layer="1859" to-port="1" />
		<edge from-layer="1859" from-port="2" to-layer="1864" to-port="0" />
		<edge from-layer="1860" from-port="0" to-layer="1864" to-port="1" />
		<edge from-layer="1861" from-port="0" to-layer="1864" to-port="2" />
		<edge from-layer="1862" from-port="0" to-layer="1864" to-port="3" />
		<edge from-layer="1863" from-port="0" to-layer="1864" to-port="4" />
		<edge from-layer="1864" from-port="5" to-layer="1914" to-port="1" />
		<edge from-layer="1864" from-port="5" to-layer="1866" to-port="0" />
		<edge from-layer="1865" from-port="0" to-layer="1866" to-port="1" />
		<edge from-layer="1866" from-port="2" to-layer="1871" to-port="0" />
		<edge from-layer="1867" from-port="0" to-layer="1871" to-port="1" />
		<edge from-layer="1868" from-port="0" to-layer="1871" to-port="2" />
		<edge from-layer="1869" from-port="0" to-layer="1871" to-port="3" />
		<edge from-layer="1870" from-port="0" to-layer="1871" to-port="4" />
		<edge from-layer="1871" from-port="5" to-layer="1876" to-port="0" />
		<edge from-layer="1872" from-port="0" to-layer="1873" to-port="0" />
		<edge from-layer="1873" from-port="1" to-layer="1875" to-port="0" />
		<edge from-layer="1874" from-port="0" to-layer="1875" to-port="1" />
		<edge from-layer="1875" from-port="2" to-layer="1876" to-port="1" />
		<edge from-layer="1876" from-port="2" to-layer="1878" to-port="0" />
		<edge from-layer="1877" from-port="0" to-layer="1878" to-port="1" />
		<edge from-layer="1878" from-port="2" to-layer="1883" to-port="0" />
		<edge from-layer="1879" from-port="0" to-layer="1883" to-port="1" />
		<edge from-layer="1880" from-port="0" to-layer="1883" to-port="2" />
		<edge from-layer="1881" from-port="0" to-layer="1883" to-port="3" />
		<edge from-layer="1882" from-port="0" to-layer="1883" to-port="4" />
		<edge from-layer="1883" from-port="5" to-layer="1884" to-port="0" />
		<edge from-layer="1883" from-port="5" to-layer="1890" to-port="0" />
		<edge from-layer="1884" from-port="1" to-layer="1889" to-port="0" />
		<edge from-layer="1885" from-port="0" to-layer="1889" to-port="1" />
		<edge from-layer="1886" from-port="0" to-layer="1889" to-port="2" />
		<edge from-layer="1887" from-port="0" to-layer="1889" to-port="3" />
		<edge from-layer="1888" from-port="0" to-layer="1889" to-port="4" />
		<edge from-layer="1889" from-port="5" to-layer="1890" to-port="1" />
		<edge from-layer="1890" from-port="2" to-layer="1895" to-port="0" />
		<edge from-layer="1891" from-port="0" to-layer="1895" to-port="1" />
		<edge from-layer="1892" from-port="0" to-layer="1895" to-port="2" />
		<edge from-layer="1893" from-port="0" to-layer="1895" to-port="3" />
		<edge from-layer="1894" from-port="0" to-layer="1895" to-port="4" />
		<edge from-layer="1895" from-port="5" to-layer="1900" to-port="0" />
		<edge from-layer="1896" from-port="0" to-layer="1897" to-port="0" />
		<edge from-layer="1897" from-port="1" to-layer="1899" to-port="0" />
		<edge from-layer="1898" from-port="0" to-layer="1899" to-port="1" />
		<edge from-layer="1899" from-port="2" to-layer="1900" to-port="1" />
		<edge from-layer="1900" from-port="2" to-layer="1902" to-port="0" />
		<edge from-layer="1901" from-port="0" to-layer="1902" to-port="1" />
		<edge from-layer="1902" from-port="2" to-layer="1907" to-port="0" />
		<edge from-layer="1903" from-port="0" to-layer="1907" to-port="1" />
		<edge from-layer="1904" from-port="0" to-layer="1907" to-port="2" />
		<edge from-layer="1905" from-port="0" to-layer="1907" to-port="3" />
		<edge from-layer="1906" from-port="0" to-layer="1907" to-port="4" />
		<edge from-layer="1907" from-port="5" to-layer="1908" to-port="0" />
		<edge from-layer="1908" from-port="1" to-layer="1913" to-port="0" />
		<edge from-layer="1909" from-port="0" to-layer="1913" to-port="1" />
		<edge from-layer="1910" from-port="0" to-layer="1913" to-port="2" />
		<edge from-layer="1911" from-port="0" to-layer="1913" to-port="3" />
		<edge from-layer="1912" from-port="0" to-layer="1913" to-port="4" />
		<edge from-layer="1913" from-port="5" to-layer="1914" to-port="0" />
		<edge from-layer="1914" from-port="2" to-layer="1919" to-port="0" />
		<edge from-layer="1915" from-port="0" to-layer="1919" to-port="1" />
		<edge from-layer="1916" from-port="0" to-layer="1919" to-port="2" />
		<edge from-layer="1917" from-port="0" to-layer="1919" to-port="3" />
		<edge from-layer="1918" from-port="0" to-layer="1919" to-port="4" />
		<edge from-layer="1919" from-port="5" to-layer="1924" to-port="0" />
		<edge from-layer="1920" from-port="0" to-layer="1921" to-port="0" />
		<edge from-layer="1921" from-port="1" to-layer="1923" to-port="0" />
		<edge from-layer="1922" from-port="0" to-layer="1923" to-port="1" />
		<edge from-layer="1923" from-port="2" to-layer="1924" to-port="1" />
		<edge from-layer="1924" from-port="2" to-layer="1926" to-port="0" />
		<edge from-layer="1925" from-port="0" to-layer="1926" to-port="1" />
		<edge from-layer="1926" from-port="2" to-layer="1931" to-port="0" />
		<edge from-layer="1927" from-port="0" to-layer="1931" to-port="1" />
		<edge from-layer="1928" from-port="0" to-layer="1931" to-port="2" />
		<edge from-layer="1929" from-port="0" to-layer="1931" to-port="3" />
		<edge from-layer="1930" from-port="0" to-layer="1931" to-port="4" />
		<edge from-layer="1931" from-port="5" to-layer="1936" to-port="0" />
		<edge from-layer="1932" from-port="0" to-layer="1933" to-port="0" />
		<edge from-layer="1933" from-port="1" to-layer="1935" to-port="0" />
		<edge from-layer="1934" from-port="0" to-layer="1935" to-port="1" />
		<edge from-layer="1935" from-port="2" to-layer="1936" to-port="1" />
		<edge from-layer="1936" from-port="2" to-layer="1938" to-port="0" />
		<edge from-layer="1937" from-port="0" to-layer="1938" to-port="1" />
		<edge from-layer="1938" from-port="2" to-layer="1943" to-port="0" />
		<edge from-layer="1939" from-port="0" to-layer="1943" to-port="1" />
		<edge from-layer="1940" from-port="0" to-layer="1943" to-port="2" />
		<edge from-layer="1941" from-port="0" to-layer="1943" to-port="3" />
		<edge from-layer="1942" from-port="0" to-layer="1943" to-port="4" />
		<edge from-layer="1943" from-port="5" to-layer="1944" to-port="0" />
		<edge from-layer="1943" from-port="5" to-layer="1950" to-port="0" />
		<edge from-layer="1944" from-port="1" to-layer="1949" to-port="0" />
		<edge from-layer="1945" from-port="0" to-layer="1949" to-port="1" />
		<edge from-layer="1946" from-port="0" to-layer="1949" to-port="2" />
		<edge from-layer="1947" from-port="0" to-layer="1949" to-port="3" />
		<edge from-layer="1948" from-port="0" to-layer="1949" to-port="4" />
		<edge from-layer="1949" from-port="5" to-layer="1950" to-port="1" />
		<edge from-layer="1950" from-port="2" to-layer="1955" to-port="0" />
		<edge from-layer="1951" from-port="0" to-layer="1955" to-port="1" />
		<edge from-layer="1952" from-port="0" to-layer="1955" to-port="2" />
		<edge from-layer="1953" from-port="0" to-layer="1955" to-port="3" />
		<edge from-layer="1954" from-port="0" to-layer="1955" to-port="4" />
		<edge from-layer="1955" from-port="5" to-layer="1957" to-port="0" />
		<edge from-layer="1956" from-port="0" to-layer="1957" to-port="1" />
		<edge from-layer="1957" from-port="2" to-layer="1962" to-port="0" />
		<edge from-layer="1958" from-port="0" to-layer="1962" to-port="1" />
		<edge from-layer="1959" from-port="0" to-layer="1962" to-port="2" />
		<edge from-layer="1960" from-port="0" to-layer="1962" to-port="3" />
		<edge from-layer="1961" from-port="0" to-layer="1962" to-port="4" />
		<edge from-layer="1962" from-port="5" to-layer="1964" to-port="0" />
		<edge from-layer="1963" from-port="0" to-layer="1964" to-port="1" />
		<edge from-layer="1964" from-port="2" to-layer="1969" to-port="0" />
		<edge from-layer="1965" from-port="0" to-layer="1969" to-port="1" />
		<edge from-layer="1966" from-port="0" to-layer="1969" to-port="2" />
		<edge from-layer="1967" from-port="0" to-layer="1969" to-port="3" />
		<edge from-layer="1968" from-port="0" to-layer="1969" to-port="4" />
		<edge from-layer="1969" from-port="5" to-layer="1974" to-port="0" />
		<edge from-layer="1970" from-port="0" to-layer="1971" to-port="0" />
		<edge from-layer="1971" from-port="1" to-layer="1973" to-port="0" />
		<edge from-layer="1972" from-port="0" to-layer="1973" to-port="1" />
		<edge from-layer="1973" from-port="2" to-layer="1974" to-port="1" />
		<edge from-layer="1974" from-port="2" to-layer="1976" to-port="0" />
		<edge from-layer="1975" from-port="0" to-layer="1976" to-port="1" />
		<edge from-layer="1976" from-port="2" to-layer="1981" to-port="0" />
		<edge from-layer="1977" from-port="0" to-layer="1981" to-port="1" />
		<edge from-layer="1978" from-port="0" to-layer="1981" to-port="2" />
		<edge from-layer="1979" from-port="0" to-layer="1981" to-port="3" />
		<edge from-layer="1980" from-port="0" to-layer="1981" to-port="4" />
		<edge from-layer="1981" from-port="5" to-layer="1982" to-port="0" />
	</edges>
	<rt_info>
		<MO_version value="2024.6.0-17404-4c0f47d2335-releases/2024/6" />
		<Runtime_version value="2024.6.0-17404-4c0f47d2335-releases/2024/6" />
		<conversion_parameters>
			<input_model value="DIR/efficientnet-b0-int8.onnx" />
			<is_python_api_used value="False" />
			<output_dir value="DIR" />
		</conversion_parameters>
		<framework>
			<onnx.infer value="onnxruntime.quant" />
		</framework>
		<legacy_frontend value="False" />
	</rt_info>
</net>
